Method 3 DNN Face Extraction and Training/MesoNet_model.pth (torch, 136560 bytes, 20 tensors)

conv1.weight f4 [8, 3, 3, 3]
00000000: 201a 883d 6c01 863c ccc8 bdbd 19b2 c53c
00000010: 728f 0bbe a494 cfbd 601d fb3d 49fd 803b
00000020: 04e6 ad3c ccd1 173e 0479 35bd 5659 a43c
00000030: b49b c93d f2e5 6c3d 2733 c4bd c3ce 9f3e
00000040: bf10 653d f6d8 273b 597b 9abd c655 f9bd
00000050: d89e 7ebe 090d 2e3e 9ed8 b73d dd89 56be
00000060: 3678 123e a8a7 c3bd 5891 82be 34dc 393e
00000070: e4ad 1a3d 6c35 bbbd 2dbb 1bbd ddb4 e43c
00000080: 2012 35be e1e2 ac3d 9dc5 d83d 91b0 6cbd
00000090: dd0f a43c 1ae8 553e c82a ccbd db9d 833e
000000a0: 54d2 143e 9a10 04be 18ff bfbd f9cd dcbd
000000b0: ce8d 9abe d81c 0a3e e841 8f3d c54d cf3d
000000c0: 92f2 e93d 557b 833d 53e1 72be b717 60bd
000000d0: 4a46 5dbd b677 31be e4d4 a0bd 92f8 c2bd
000000e0: 489f 433d 5301 503d 48d3 0e3b 6878 213d
000000f0: 2cc3 c0bd bd6c 84bd 0b24 1dbe 6869 093e
00000100: 5e30 5c3e d9c0 9b3d 93db 4e3d 6937 493b
00000110: c40a fa3d 9158 45bd 33f3 58bd 5b12 7abd
00000120: 1cd6 f23d 8e50 973e b586 8a3e 4c4f 643e
00000130: 0af0 2b3e 6baa 11be a06c 3c3e 8a76 013e
00000140: d090 58bd c8d3 3bbe 97d5 28be 6e4d 823d
00000150: b3ce e6be 6501 acbe 4ec1 17be 0eee a5be
00000160: 138f a6be 27fe fabd b260 6b3e f8d8 f6bb
00000170: 69ec 2c3d d402 1e3c 267a c43d c4c4 cdbd
00000180: 7997 acbd 4407 a6bd f79b f83c 1222 56bc
00000190: e30c 2bbe 9dee 263e cfd8 923d bcb5 f3bd
000001a0: a19e 16be 5678 93bd 02d4 883c 3238 713e
000001b0: 9950 f4bc fed7 233d ab3a c53d ff7d ea3d
000001c0: c727 5ebe b068 953d e4e9 263e 690e 37bd
000001d0: 5f2f 8fbd d95d 5dbe 980d 88bd 89b0 cabd
000001e0: 9d3d 4bbe b9fa 1cbe 7205 a0bc de3d 193d
000001f0: 5d3a f5bc fb08 a53e dd35 24be 5675 97be
00000200: 78f2 1abd f666 25be 26fd 80be 6ec2 823e
00000210: aac9 083e 49ce 973e ce9b 5e3e ed61 e53d
00000220: 3f40 41bd 6f09 023e 582c 09bd 3dc1 2a3e
00000230: 08fb 163e 4751 cf3d 8c76 2e3e 6521 833c
00000240: 4f34 b83d 598f 513c c785 5e3d 3c64 48be
00000250: 1859 80bd 4256 1a3e 3306 57be 5988 18be
00000260: f4a0 dabd 1a59 57be ca22 b0bd fc43 653d
00000270: e04a b9be da2e efbd 5f38 87bc 1687 a3be
00000280: 626e 92be 1572 cabd b2f1 18bd 8b26 a83d
00000290: b29c 673d aa9c 8abe ab37 7f3e 9580 683e
000002a0: 74a8 943d 7244 1c3e 8e98 e93d d0ca 8abe
000002b0: 6c02 993d 270a a63d 97de 3fbe 0448 3d3e
000002c0: 9938 d63d febb 883c f465 a73d 3b4f e93b
000002d0: 12a5 c1bd 1579 3bbe 39cb 87bc a412 c3bd
000002e0: 41a7 1cba 49ff 0a3e 93d3 2fbe d699 173e
000002f0: 0c9b 24bc e024 c3bd 710e 023e b63d 343e
00000300: 8e8e d93d 27cd 293e 9f8c 123e 6218 c6bd
00000310: 785f 03be 33d3 bdbd 75b9 68be 2bf0 cdbd
00000320: 899e b6bd 18bb 843d a7d9 8bbc ec6c d53d
00000330: 7342 75be 35f9 dcbd 5861 1bbe 2660 ef3d
00000340: 5844 103e d799 9b3e 5fcc 08bd 13c0 b4bc
00000350: 6271 313e 7608 80be 1009 55bd 8616 72bd
0.06645608 0.0163581 -0.092668146 0.024132775 -0.13628939 -0.10135773 0.12261462 0.003936444
0.021227844 0.14826125 -0.044304863 0.02006213 0.09844151 0.05783648 -0.09580069 0.31212434
0.055924173 0.0025611497 -0.07543058 -0.12174563 -0.24865282 0.1699716 0.08976863 -0.20951028
0.1430367 -0.09553462 -0.25501513 0.18150407 0.03776349 -0.09141049 -0.0380203 0.027918274
-0.17682695 0.08441711 0.10584567 -0.057785574 0.020027095 0.20889321 -0.099690974 0.25706372
0.14533359 -0.12896958 -0.09374827 -0.10781474 -0.30186313 0.13487566 0.069949925 0.10122255
0.1142322 0.06420008 -0.23718767 -0.054710116 -0.05402211 -0.17330822 -0.07853106 -0.09520067
0.047759324 0.050782513 0.0021793414 0.03942147 -0.09412226 -0.06466053 -0.1534578 0.13419116
0.21502826 0.07605142 0.05050237 0.0030703193 0.12209085 -0.048180167 -0.052966308 -0.06105266
0.11857244 0.29553646 0.27055898 0.22295874 0.16790786 -0.14225166 0.18400812 0.12642875
-0.05287248 -0.18342507 -0.16487728 0.06362425 -0.45079574 -0.33594814 -0.14819834 -0.32408184
-0.32531032 -0.12255507 0.22986105 -0.007533189 0.042217646 0.009644229 0.095936105 -0.10047296
-0.084273286 -0.081068546 0.030347807 -0.013069646 -0.16704135 0.16301961 0.07170259 -0.118998975
-0.1470895 -0.07200687 0.016702656 0.23556593 -0.029823588 0.040000908 0.09630331 0.11449813
-0.21694861 0.07295358 0.1630016 -0.044691477 -0.06991457 -0.21617831 -0.06643218 -0.09896953
-0.19847722 -0.15330018 -0.019533847 0.037412517 -0.029935056 0.32233414 -0.16036172 -0.29581708
-0.037828892 -0.16152558 -0.25193137 0.25538963 0.13358179 0.2964957 0.21739122 0.112003185
-0.04718041 0.12698911 -0.033489555 0.16675277 0.14744198 0.10122924 0.1703741 0.016007135
0.08994352 0.012790524 0.0543268 -0.19569486 -0.06266993 0.15071967 -0.20998459 -0.14895763
-0.106752306 -0.21030083 -0.086003855 0.055973038 -0.36189938 -0.11678858 -0.016506372 -0.31939
-0.2859984 -0.09885041 -0.037339874 0.082104765 0.05654592 -0.2707265 0.2492358 0.227053
0.072586924 0.15260485 0.114060506 -0.2710786 0.07471165 0.08107405 -0.18737255 0.18484503
0.10460014 0.016691204 0.08173743 0.0071200407 -0.09455313 -0.18307908 -0.016576396 -0.0952504
-0.00059758505 0.13573946 -0.17170553 0.14804778 -0.010046732 -0.09528518 0.12700821 0.17601666
0.10622893 0.16582166 0.14311455 -0.096726194 -0.12829387 -0.09268799 -0.22726996 -0.10055574
-0.08916957 0.06480998 -0.017071558 0.10421166 -0.2395113 -0.1078972 -0.15173852 0.11688261
0.14088571 0.30390808 -0.03339803 -0.022064244 0.17328408 -0.25006455 -0.052010596 -0.05910351

conv1.bias f4 [8]
00000000: 0fd8 c43d cc52 21bc 1228 333d 425b 7e3c
00000010: 7261 be3d 7db7 453e d870 0d3e 11c3 3fbe
0.096115224 -0.0098464005 0.043739386 0.015524687 0.0929593 0.19308276 0.13812578 -0.18726756

conv2.weight f4 [8, 8, 5, 5]
00000000: 7cec c13b 4036 2cbd 236b 3f3c ff60 273c
00000010: 88c7 9a3d c87f 44be b606 dbbd c902 dc3c
00000020: fc7b 7fbd afb7 873d 7fb1 6cbe bf5f 6bbe
00000030: 41b4 b53a 6a4d b1bd 00a0 093e 8ff3 f3bd
00000040: c618 cebd 2709 d9bc ad16 8fbd af2b 293e
00000050: fa73 26be a20b 9abd 24be 55bc 54cd 0ebc
00000060: 25f7 b83d d680 63bd 87c1 dfbd f641 06bd
00000070: d228 1ebe 6492 6abd 9b9b 83bc 808d 13bc
00000080: a94e d3bb e523 34be 833f 333d 54ca 62bd
00000090: afc3 ecbc fff1 26bd 0ec1 93bd 28c3 063e
000000a0: e68c 98bc db87 d73c 23c4 bc3b a5fc aebd
000000b0: 0ecf a0bb ee7b 473e e50e 583e 5969 323e
000000c0: 2ab7 373d 00c8 bc3d c323 a83c f629 703c
000000d0: a6d6 073c 6fb7 8f3a 127c c2bc f037 433d
000000e0: ab32 bcbc 2681 e8bc bf58 813d 651b 1cbd
000000f0: 5c2f b53d 3f3e 9cbc 0e9c d53c a9d9 7fbd
00000100: 26e3 8ebd f2b2 30bb 79d8 13be 58ea 90bd
00000110: e6b8 dbbd beac 3fbe d31d 9cbc 515c a1bd
00000120: 9da0 2ebd 04c7 19be 8414 46be e1ab 483e
00000130: 31e4 2c3e 503d 3d3d 2c24 5b3d 11ee 24bd
00000140: ac1a 2e3e f4b1 2c3d ecbf 8b39 8fc5 d2bd
00000150: bdfd 6ebd 9157 b53d ea09 793d eace b03c
00000160: 56f3 ffbd 7271 f1bd a42c c2bb 60af ccbd
00000170: 6205 7cbd efa3 ccbd a44b 2abe 4151 06be
00000180: 6cf8 44be f52e 35be 3b06 6abe 26e7 89be
00000190: bff2 993d 4559 fc3d 96a7 0f3d 98d5 c13d
000001a0: 2b10 603d 8f4e 593d 0148 aebd 2208 02bd
000001b0: 3d60 f3bd ccfb 0bbd 12dc ebbc 7fc5 7fbd
000001c0: 5ac4 81bd 0a55 05be f00e 60bd 746d aebd
000001d0: 3ed6 c0bd 6c78 b3bd 2de5 03bd 7e8d 9ebd
000001e0: 466b 0bbd a626 0bbc 24ea 693d 8cf5 d23c
000001f0: 4702 f2ba e28c b0bc 0f9e e9bd 7545 11bd
00000200: cfba ba3c d9df c5bd 17e6 cabd 238b eebd
00000210: 191e a5bc 7359 56bd ee0e 15bd cc02 663c
00000220: efa4 c4bd 2dfe fabc 7832 86bd 7523 163d
00000230: ca79 8c3d 06b1 21bd 4ff3 33bc 67cb d03c
00000240: 85be 9c3c dcc7 ce3c 7739 a33d 1e27 2e3e
00000250: f9f6 5e3e cdae 463e da43 ebbd 2710 45bd
00000260: b80b efbd f442 e1bc 939f dabc d9c9 c8bd
00000270: ee4d e2bd 7aff e7bd d02b 92bd 85ce 2abd
00000280: 48b9 8fbb 6752 1abd 4173 cfbd 58fa 363b
00000290: 2ab0 943d 4612 a03d d0a4 e03d db4f 7e3d
000002a0: ca18 033e 5b5a 4f3e 3811 f23c b230 a03d
000002b0: 87f9 9a3d 568e 643e 80d2 5b3e 535d 03be
000002c0: d3c6 c4bd 5421 07be 8139 09be f36a 9bbd
000002d0: eae3 4cbe 4904 29be a39a d7bd 4c6a b2bd
000002e0: 4de0 d9bd e016 cbbd a515 edbd 27d5 ddbc
000002f0: fbd4 4dbd 8579 17bd 6db4 ea3c 28a7 dc3c
00000300: f76a 1c3d 46c7 383d dfd7 38bd 4b8e 093e
00000310: 8830 9d3d 51e1 453e ea4c 283e 13bd ee3d
00000320: aac7 c23c df06 083e 5bcc 0a3e 75e5 ed3d
00000330: e8a0 ed3d ab90 163e d36b c63d 469f 5b3d
00000340: aa2d 9c3d e2aa 993c 4de8 013e 49fd 17bc
00000350: 6e0c 3e3c d8e9 8bbd 349d 623d 71c2 063e
00000360: 6e00 903d 9e41 703d f56c 453d 7bb3 9ebd
00000370: 2d79 243d db23 ad3a 351a b33c e3e8 13bd
00000380: 7d5f f53c 7d0f d23d d516 d63d a629 003e
00000390: 83df 8fbd c899 54be 1f62 343e 1d15 d93d
000003a0: ca8c 903d 7562 2a3b 7684 ebbd 235d 3e3e
000003b0: fc4d 87bd 2d40 1abd dce6 753b 801a bebd
000003c0: f294 cbbb 8196 1ebd 0eec d9bd 0956 06be
000003d0: 86ff 18be 6458 98bc dbde 61bd b38b 95bd
000003e0: 0fff e6bd d256 0ebe fcdf a23c b4d4 f83d
000003f0: 1edf 183e 4bab 903d c7b4 033e 348e 043d
0.0059180837 -0.042043924 0.011683258 0.010215997 0.07557589 -0.1918937 -0.106946394 0.026856797
-0.0623741 0.06626832 -0.23114584 -0.22985743 0.0013862924 -0.08657344 0.13439941 -0.119116895
-0.10063319 -0.026493622 -0.06986747 0.1652057 -0.16255179 -0.0752175 -0.013045821 -0.008715946
0.09031514 -0.05554279 -0.10925584 -0.03277775 -0.15445259 -0.057268515 -0.01606541 -0.009005904
-0.006448586 -0.17591818 0.04376174 -0.055368736 -0.028901903 -0.04075813 -0.07214557 0.13160384
-0.018621873 0.026309898 0.005760686 -0.08544282 -0.0049074953 0.19480869 0.21099432 0.17423
0.044852413 0.092178345 0.020524865 0.014658442 0.008290922 0.0010964702 -0.023740802 0.047660768
-0.02297338 -0.028381895 0.06315755 -0.038112063 0.08846924 -0.01907265 0.02607539 -0.062463436
-0.06976919 -0.0026962128 -0.14438047 -0.070759475 -0.10728626 -0.1871824 -0.01905719 -0.07878936
-0.04263364 -0.15017325 -0.19343764 0.19596817 0.16883923 0.04620105 0.053501293 -0.0402661
0.17002362 0.042161897 0.0002665514 -0.102915876 -0.058347452 0.088545926 0.06080047 0.02158304
-0.124975845 -0.11789216 -0.0059257317 -0.099943876 -0.06152857 -0.09992205 -0.16630417 -0.13116933
-0.1923539 -0.17693694 -0.22853939 -0.26934165 0.07517003 0.12321714 0.03507193 0.09464568
0.05470292 0.053053435 -0.085098274 -0.031746037 -0.1188359 -0.03417568 -0.028791461 -0.062444206
-0.06336279 -0.13020721 -0.054701746 -0.0851697 -0.094158635 -0.08763203 -0.03220098 -0.07741831
-0.03403785 -0.008493101 0.05710806 0.025751851 -0.0018463813 -0.021551553 -0.114071004 -0.03546663
0.022794155 -0.09661836 -0.099071674 -0.11647632 -0.020155953 -0.0523314 -0.03639119 0.014038753
-0.09601771 -0.030638779 -0.06552595 0.03665491 0.06859167 -0.039475463 -0.010983302 0.025487615
0.019133816 0.025241785 0.07969945 0.1700711 0.217739 0.19402619 -0.11487551 -0.048111107
-0.11672157 -0.027497746 -0.026687419 -0.098041244 -0.1105002 -0.11328025 -0.07137263 -0.04170086
-0.004386101 -0.03767624 -0.10129405 0.0027920213 0.07260163 0.078159854 0.109689355 0.062087875
0.12802425 0.20249312 0.029549226 0.07821788 0.07567125 0.22319922 0.21467018 -0.12828569
-0.09608235 -0.13196307 -0.13400842 -0.07588758 -0.20008817 -0.16505541 -0.105275415 -0.08711681
-0.10638485 -0.099164724 -0.11576394 -0.027079178 -0.050251942 -0.036981124 0.028650487 0.026935175
0.038187947 0.045111917 -0.045127746 0.13433187 0.07675272 0.19324233 0.1643559 0.11657157
0.023776848 0.13283871 0.13554518 0.11616031 0.11602956 0.14703624 0.096885346 0.05361869
0.07625897 0.018758241 0.12686272 -0.0092766965 0.011599643 -0.068317115 0.0553257 0.13160111
0.07031332 0.058656327 0.048199613 -0.07749077 0.040154625 0.0013209538 0.021863082 -0.03611077
0.029952759 0.102568604 0.104535736 0.12515888 -0.07025053 -0.20761788 0.17615555 0.1059973
0.070581034 0.0025998626 -0.11499874 0.18590216 -0.06606671 -0.03765886 0.0037521636 -0.09282398
-0.006212824 -0.03871775 -0.10640727 -0.13118757 -0.14941224 -0.018596835 -0.055144172 -0.07302036
-0.11279117 -0.13900307 0.019882195 0.12149945 0.14928862 0.070639215 0.1286193 0.032362178

conv2.bias f4 [8]
00000000: 4ab0 893d 3718 c8bd a37f f43c c52e 15bd
00000010: 68bc 02be 0db1 393c 3b00 f43d 2aa2 a13d
0.067230776 -0.097702436 0.029846018 -0.036421556 -0.12767184 0.011333716 0.119141065 0.078922585

conv3.weight f4 [16, 8, 5, 5]
00000000: 37c0 923d 2bb2 223d 2e93 6e3d be3d d8bc
00000010: 44a1 0e3d bf7e 35be 6012 9bbe bbf9 efbd
00000020: 58f5 27be 19fb fbbd e361 05bc 9e13 013d
00000030: 7a9f 8dbd cd0d 1b3d 543d 1c3d 7255 393d
00000040: 8de7 123d 9859 9e3d 7e12 6d3b 1cd8 613d
00000050: bd2c 00bd d391 ab3d 7abb 1d3e b0c1 233e
00000060: 0196 513e c9b0 80bd 7ac8 2eba 98cb 13bd
00000070: 7691 9b3d 907b 343d 4359 a9bd fd43 bb3c
00000080: c3af 183d bd99 27bd bf19 253d 51b7 3fbd
00000090: b1eb 85bc 6935 24bd 7f30 393d 07d5 a9bd
000000a0: 5558 b73d 5994 06bd f1d2 44bc a95a 5e3c
000000b0: e98e 3e3a 6450 d33d 7ac2 babb e351 2bbd
000000c0: 139e e5bc cd58 01bd fbe4 2fbe fe8f f6bd
000000d0: b009 22be afd8 4abe a1f1 29be 8848 2dbe
000000e0: 5824 febd ff55 91bd 7b91 d3bd ca1b 193d
000000f0: 51eb 8bbc 53f8 5b39 0ca8 b63c 118e c63a
00000100: 5b93 a4bc 2fb9 253d 07d4 e93a 1842 1dbd
00000110: 12fc 033c b511 97bd b8d7 a4bb 9a83 db3d
00000120: 2145 ec3d 3f68 9ebc 00ff 18bd 0c25 e13d
00000130: c345 1f3e c02d a23c a605 3abe 5a81 28bd
00000140: c1b3 63bd a411 e6bc e601 3dbe c66c 73be
00000150: f82c ec3b 338e 0fbd b7d1 9bbd adf6 64be
00000160: 74b0 82be c6cd c5bd fc5f eebd c346 a8bb
00000170: 0b11 0fbe 0d3d bebd b0c6 023b 20ec 37bd
00000180: a5c8 bebd 097e 0e3d 7d5e c53c c0b6 1a3e
00000190: de16 0dbb c3a4 643c d4b8 db3c 013a febd
000001a0: 8a9d 27be 21c5 1fbe 60e6 6cbe 82d2 06be
000001b0: 61c2 06be eab0 f63c 6dd8 00be 0964 90bd
000001c0: 27f9 e2bb d67a cd3d ee4c 0c3e 3204 5b3d
000001d0: 3c1a d5bd e05a 2fbd abbb f2bc e752 873c
000001e0: 9ed8 ea3d ba75 e43d e79a ab3d 1805 d93d
000001f0: 2e9d c73d 2049 593d cb53 43bc 5887 0bbd
00000200: f104 2a3d acaa f13d d2c5 8bbd 82f9 f7bc
00000210: 7e95 513d b04d 163d 292e d53c c852 30bd
00000220: 9a8b 5b3d e55f 103d 5f9b 90bd 88ed 58be
00000230: 93e2 babd 5685 32bd 441c 223e 4846 423e
00000240: 9a17 13be eef0 22bd c065 c0bb 523c 5f3e
00000250: d31f 9c3e 9223 cfbd 6a27 25bd 4ce4 933d
00000260: 20f5 93bd 9f14 543c aafc d4bd 488e 66bd
00000270: b45e b23d 8ff0 08be 8698 ccbc 1d1c 77bd
00000280: ef8a 8cbc 7a44 47bd 16f7 8abd 6f0c fb3b
00000290: 421e d2bd b9f2 babc c1fd 89bd 885c 0abd
000002a0: 4c77 d33d e436 1ebd ce65 8b3d 28b1 fdbd
000002b0: 0125 d7bc fedc 1a3e ae60 293e d634 1bbe
000002c0: 87a1 c4bd c773 38be 368b 8eba 99cb 113d
000002d0: 5d16 92bd 7218 7bbd fbdc 73bd b294 9cbd
000002e0: ae17 9a3c d351 85bd 8d47 4dbd 30e2 403c
000002f0: d701 533d 39a9 86bd 4ab7 15bc b383 453d
00000300: 7f71 703d 2625 00bd 817f cdbc ffc8 03bd
00000310: ab68 5f3d c357 70bd 660d b73c f66f cfbb
00000320: 1fb9 963d 2b3c 843d 5175 153e 7e6f 383e
00000330: f1cf bc3d ab0a 323b 0f26 cb3d 9139 333e
00000340: 91db 883d 8633 033e 2755 83bd b9db 88bd
00000350: 4149 44be 6cd5 f2bd 5e27 7dbe d7e8 82bc
00000360: e481 883b efc4 68bc cb07 1fbe 0ad0 c8bd
00000370: 2a1b d8bc ddff ac3b 1d2d 76bd f656 14bd
00000380: 8579 0cbe e581 783d 2610 033e 3a71 e13d
00000390: cf24 f3bb b9be 16bd 95dc 763d 34a9 f93d
000003a0: 16b5 343d 0cd1 2f3e 957a 373d 1d99 3c3d
000003b0: d870 3bbc 3f2f 553e 55cb bd3d b8b9 c63d
000003c0: d449 04bd fcb3 e43c fc91 c23d c4ba a33d
000003d0: 59c5 54bd 81c2 b03b 5cb8 363c 0e23 af3d
000003e0: 7c86 33bd 3c3e 0cbe cbac 2f3d 10fc d53d
000003f0: 6c65 f53d 4577 1b3b 1f4f 67bd dbed 8f3d
0.07165568 0.039720695 0.05824583 -0.026396628 0.034821764 -0.17724131 -0.30287457 -0.11717554
-0.16402185 -0.123037525 -0.008141014 0.03151285 -0.06915183 0.03785496 0.038144425 0.045247503
0.035865355 0.077319324 0.0036174352 0.05513774 -0.031292666 0.08377423 0.15403548 0.15991855
0.20467378 -0.06283719 -0.00066674466 -0.036082834 0.07596104 0.04406315 -0.082689784 0.022859568
0.037276994 -0.0409181 0.040307757 -0.046805684 -0.016347738 -0.04009 0.045212265 -0.08292585
0.08952395 -0.03285632 -0.012013183 0.01357142 0.000726922 0.10318068 -0.005699453 -0.04182614
-0.028029477 -0.031578828 -0.17177193 -0.12039183 -0.15824008 -0.1980922 -0.1659608 -0.169222
-0.12409276 -0.070964806 -0.103304826 0.037380017 -0.017079981 0.00020977976 0.022296928 0.001514854
-0.020089796 0.040459808 0.0017839678 -0.03839311 0.008055704 -0.07376424 -0.0050305985 0.107184604
0.11536623 -0.019336818 -0.037352562 0.10993394 0.15553956 0.019797206 -0.18166217 -0.041138984
-0.05559135 -0.028084584 -0.18457755 -0.23771963 0.007207509 -0.03504772 -0.07608359 -0.22359724
-0.25525248 -0.09658389 -0.11639401 -0.0051353886 -0.13971345 -0.09288988 0.0019954853 -0.04490292
-0.09315614 0.034788165 0.024092907 0.15108776 -0.0021528522 0.013955298 0.026821531 -0.12413407
-0.1636869 -0.15602542 -0.23134756 -0.1316624 -0.13160087 0.030113656 -0.1258256 -0.0705033
-0.006926674 0.10033195 0.13701221 0.053470798 -0.104053944 -0.042811275 -0.029630503 0.016519023
0.11467098 0.11155267 0.08379155 0.10596675 0.097467765 0.053048253 -0.011921833 -0.03406462
0.04150862 0.11800131 -0.068248406 -0.030270342 0.051167957 0.036695182 0.026022987 -0.043047696
0.05359993 0.035247702 -0.07060885 -0.21184361 -0.09125247 -0.04358419 0.15831095 0.18972123
-0.14364472 -0.03978055 -0.0058715045 0.21800354 0.3049303 -0.101142064 -0.04032079 0.072212785
-0.07224488 0.01294437 -0.10399754 -0.056288034 0.087094694 -0.13373016 -0.024975073 -0.060329545
-0.017156092 -0.04864929 -0.06785409 0.0076613943 -0.102596775 -0.022820817 -0.06737853 -0.03377965
0.103254884 -0.038626567 0.06806527 -0.123873055 -0.026262762 0.15123364 0.16540787 -0.15156874
-0.096011214 -0.18012916 -0.0010875228 0.035594556 -0.07133172 -0.06130261 -0.059536915 -0.07645549
0.01881012 -0.06509747 -0.050117064 0.011772677 0.051515426 -0.065752454 -0.009137938 0.0482213
0.05870199 -0.031285428 -0.025085213 -0.032174107 0.05454318 -0.058677446 0.022345256 -0.0063304855
0.07359528 0.06456789 0.14595534 0.18011281 0.09219349 0.0027167003 0.099193685 0.17502429
0.06682504 0.12812623 -0.06412726 -0.06682534 -0.19168569 -0.11857113 -0.24722049 -0.015980167
0.004165875 -0.014207109 -0.15530317 -0.09805305 -0.02638014 0.0052795247 -0.060101617 -0.036215745
-0.13718231 0.060670752 0.12799129 0.110079244 -0.0074201594 -0.03680298 0.060268957 0.12190476
0.04411801 0.17169589 0.044794638 0.046044458 -0.011440478 0.20818804 0.09267298 0.09703392
-0.03229697 0.027917854 0.095005006 0.07994607 -0.051946018 0.0053942804 0.011152353 0.08551608
-0.043829426 -0.13695616 0.042889398 0.10448468 0.11982235 0.0023722213 -0.05647194 0.07027789

conv3.bias f4 [16]
00000000: 204a 703e dc2b 473d 256b 05be b0b0 c4bd
00000010: a517 12be 484e a7bd 3f0b 083e c75f 393d
00000020: f2f1 dabd 08a3 b23c 108d 5b3d 4a38 36be
00000030: 3986 5cba c3b2 01bb efeb c2bb 8411 5d3d
0.23465776 0.048625812 -0.13029154 -0.09604013 -0.14266832 -0.08169228 0.1328554 0.045257356
-0.10690679 0.021806255 0.053601325 -0.1779491 -0.0008412335 -0.0019790388 -0.0059485356 0.053971782

conv4.weight f4 [16, 16, 5, 5]
00000000: 29a7 a93d 17c8 b33c a152 dabd ef49 fabd
00000010: 8dd3 c2bc b234 533e cbf2 483d c9cc d0bb
00000020: 0e3d f4bc ec56 1c3c 6650 bcbd aa6d b9bd
00000030: 3841 0dbe a8a6 373c b4d4 a33d 895e 19be
00000040: 7d05 42be ab10 fcbd 623c c5bd a179 62bb
00000050: ca4c 8cbd ef2b 31be ac69 2dbe 338a 0cbe
00000060: efa7 843d e65c 643e 4b7c 453e 5bde 00be
00000070: 0096 82bd f435 213e 713b d13d 6a22 203e
00000080: 0fd2 05bd 6ca8 553d c274 1c3e ee78 0d3e
00000090: c97f dd3d 1551 9e3b 6286 0abe 9f8e d03c
000000a0: 99da a33d 3e8e 253d 9a44 d2ba 8888 32bd
000000b0: 10cc e43d f302 8d3d faba 9bbd 111c bdbd
000000c0: 9072 8dbd 4258 87bd 32b5 2ebe d6d6 6b3d
000000d0: 5140 adbd 9c26 5dbc 7df2 7b3d 14cc 693d
000000e0: e5bb ae3d 4413 8b3c a53e 243e 29ac fb3d
000000f0: d676 23be c03c 0dbd d88c d13d 59df b73d
00000100: 0edb 783c 155a efbb 966e 293c dcbb ae3d
00000110: a2ef 513e bfc8 b6bd 9e87 04be 7fe0 10be
00000120: d211 fb3d 423e 913e 63ad 323e b7a4 923c
00000130: 3b4d 98bd 2e7f a5bd f99c 313d abbc 8e3d
00000140: 57dc e43d 6cb1 753e 3946 ea3b 23d4 debc
00000150: 4dbe 49bd 58e3 c03d a4b0 133e e7cc 2abd
00000160: 1b1b 053d 6cc9 193e 1254 b4bc c48f 95ba
00000170: 7555 14bd b81d 18bc e8b3 143b 527a ae3d
00000180: 68e4 b33d 580b 583d a7cc d8bd 0b1d 00be
00000190: 7007 993d 6ecc 97be cdfd 45bd 5ef2 ad3d
000001a0: dac6 adbc a9c1 063d 06dd ecbd 3a5a c9bb
000001b0: 9ef3 38bd 0c1f c9bd 0ab8 293d c6ed 69bc
000001c0: 1124 6bbd 0fea 3bbe 20ce 83bd 5c2d 8a3d
000001d0: 87ee 933c 36e2 0cbe fa8a 12be b958 0a3d
000001e0: f6ac ba3d 6f6b bbbd 098f 01be 081f 57be
000001f0: 11c3 443d 4beb 27be 546c 38bd ad45 7a3d
00000200: 3630 133e c6ae f7bb 3046 dabd a9e5 51bd
00000210: 9c56 d53c f19c b33d 65e4 6abc ec45 03be
00000220: 8ddb 7cbd 5a33 4f3d ed46 003e 8253 9c3c
00000230: 6847 a0bd 4a74 e2bd aecd 90bc 19f6 a2bd
00000240: c67d d73c 8c90 2a3e 3e8b ce3d f8a7 cd3d
00000250: ae3c 6c3d a7ce d83d 98f8 1cbe 519e e63c
00000260: 8614 5b3d f439 06bd 2262 933d 1f42 57be
00000270: cde5 7fbd 3cb8 a0bd 7fd3 10bd 60de 953d
00000280: f477 d2bd 43bd 61be 5099 1bbe 6215 b9bd
00000290: 1115 97bd 5b53 073e 2b4e 0b3d b913 48bc
000002a0: 50c3 23bd f519 123d 6245 373e 976f 353d
000002b0: 8df7 a23c d636 c53b 2f0b 9f3d 70dc 0bbe
000002c0: bf32 9bbd ca82 2bbd d0b5 c0bb 3bb8 efbd
000002d0: 6cdf f0bc ff79 74bc a370 b03d 4187 d13c
000002e0: aa49 e03d 4862 a6bc e0f7 67bd e058 94bc
000002f0: d6cb 003e 29b7 123d b401 80bd 369e abbc
00000300: 555c e3bd bb08 3fbd 1def 71bd cba5 38bd
00000310: 2036 2bbe 325c 12be 0788 14be f241 b7bd
00000320: e069 633e 2585 d93c 6f6c 4ebd 061a 25be
00000330: 868a cbbc e451 253d d8ad f1bc 5b97 7dbd
00000340: 3230 f5bd 105b b4ba 05d1 eb3d 2acd 56bc
00000350: 8bc5 a6bc e8c9 26be fa37 dabd 2413 4a3e
00000360: ac55 143d 03a4 bf3c 896a 8ebd 10f0 9ebb
00000370: b27b c23d 762e 3bbc a828 e0bd ab57 28be
00000380: e7c4 90bd 3b78 3d3d e8c1 febc 8293 a9bc
00000390: f441 5c3c efe3 8f3d 59a5 61be 7a8b 8ebc
000003a0: 5166 51bd 32cd e93c ac55 abbd a65b 0fbe
000003b0: 0ec4 13be 6c7f 3bbe 5cfa c4bc 5847 d73c
000003c0: 656f e2bc e813 493d c3a4 02bd 349e 8d3d
000003d0: 7ab7 903d e277 56bd 82da cd3d e33d 9f3c
000003e0: 5f67 413d 4b49 053d bf9f 043e fdf1 763d
000003f0: 0643 82bd 6bfd b2bd dabd 563c 0d25 c23c
0.082838364 0.021945996 -0.106602915 -0.12221133 -0.023782516 0.2062557 0.04905967 -0.0063720685
-0.02981427 0.009542208 -0.09195022 -0.0905412 -0.1379441 0.011209168 0.07999554 -0.14977469
-0.18947406 -0.12307867 -0.09630658 -0.003455736 -0.06850584 -0.17301916 -0.16934842 -0.13724594
0.06477343 0.22301063 0.19285695 -0.12584822 -0.063762665 0.15743238 0.10216416 0.15638128
-0.03267103 0.052162573 0.15278915 0.13815662 0.10815389 0.004831443 -0.13527825 0.025458632
0.080006786 0.040418856 -0.0016042173 -0.043587238 0.11171734 0.06885328 -0.07604022 -0.09233869
-0.06906617 -0.06608631 -0.17061308 0.05757793 -0.08459533 -0.013497975 0.06151055 0.05707939
0.08531932 0.01697696 0.16039522 0.12288696 -0.15963301 -0.034481764 0.10231942 0.08978147
0.015188945 -0.00730444 0.010341307 0.08531925 0.20501569 -0.08925008 -0.12942359 -0.14148138
0.12259258 0.2836781 0.17448954 0.017900808 -0.074366055 -0.08080898 0.04336259 0.06969579
0.11174839 0.23993462 0.0071494845 -0.027200764 -0.04925375 0.094183624 0.14422852 -0.041699316
0.032496553 0.15018243 -0.022012744 -0.0011410643 -0.03621431 -0.009284429 0.002269024 0.085194245
0.087837994 0.052745193 -0.10585909 -0.12511079 0.07472122 -0.29648155 -0.048337746 0.084934935
-0.021212984 0.032899532 -0.115655944 -0.006144789 -0.045154206 -0.09820375 0.04143528 -0.014277881
-0.057407442 -0.18351005 -0.064357996 0.06746933 0.018058075 -0.13758168 -0.14310828 0.03377602
0.09115021 -0.09151351 -0.1265222 -0.21007931 0.048037592 -0.16398351 -0.045025185 0.061101604
0.1437386 -0.0075586764 -0.106579185 -0.05124441 0.026042275 0.087701686 -0.01433668 -0.12819642
-0.061732817 0.050586082 0.12527056 0.019082788 -0.0782612 -0.11057337 -0.0176762 -0.07957096
0.02630509 0.16656703 0.10085152 0.10041803 0.057675056 0.10586291 -0.15329206 0.028151663
0.05348637 -0.032770112 0.07196452 -0.21021317 -0.062475014 -0.0784764 -0.03535795 0.07317805
-0.102767855 -0.22044854 -0.15195203 -0.090372816 -0.07377065 0.13215391 0.034010094 -0.0122117335
-0.039981186 0.035669286 0.17897561 0.044295873 0.019893432 0.0060185 0.07765805 -0.13658309
-0.075780384 -0.041872777 -0.0058810487 -0.11705061 -0.02940341 -0.014921664 0.08615234 0.02557719
0.1095155 -0.020310536 -0.056632876 -0.018108785 0.12577757 0.035819206 -0.06250325 -0.020949464
-0.11101595 -0.046639185 -0.059065927 -0.045079987 -0.16719866 -0.14292982 -0.14505015 -0.08948125
0.22208357 0.026552746 -0.05039638 -0.16123208 -0.024846327 0.0403613 -0.02950184 -0.061911922
-0.11972083 -0.0013760049 0.11514477 -0.013110438 -0.020357868 -0.16287959 -0.10655208 0.19733864
0.036214516 0.023393637 -0.06953914 -0.004850395 0.09496249 -0.011424651 -0.109452546 -0.16439693
-0.07068806 0.04625724 -0.031098321 -0.02070022 0.013443459 0.07025897 -0.22035731 -0.017400492
-0.051122967 0.028540228 -0.0836595 -0.13999805 -0.14430258 -0.18310326 -0.024045162 0.026279137
-0.027641008 0.04909125 -0.03189541 0.069149405 0.070662454 -0.052360423 0.10051443 0.01943869
0.047217723 0.0325406 0.12951563 0.06028937 -0.0636044 -0.08739742 0.013106788 0.023699308

conv4.bias f4 [16]
00000000: 6202 eb3d 24db a2bd 4ab6 27be 344c 9ebd
00000010: 862f a43c d00c d2bd ec9b 9b3d d4ef ae3e
00000020: 32cf 12bc b0f1 91bd 3a55 a6bc bc5d 2cbd
00000030: f160 94bd bbfb 94bb 9ecd 0abd 1057 753e
0.11475064 -0.07951954 -0.16378132 -0.07729378 0.020042192 -0.1025635 0.07598099 0.3416735
-0.008960532 -0.07126176 -0.020304311 -0.04208158 -0.072450526 -0.00454661 -0.033887498 0.23958993

batchnorm1.weight f4 [8]
00000000: 6f36 653f 8d5e a23f 5838 493f c0ec 593f
00000010: 591a 833f a558 983f 15d3 7d3f b187 4c3f
0.89536184 1.2685105 0.786016 0.85126877 1.0242416 1.1902052 0.9915021 0.7989455

batchnorm1.bias f4 [8]
00000000: 6529 bfbc 621a fe3e 11a9 fabd 7f8f dfbc
00000010: 469e f0bc 3e98 9db9 177a 5fbd a966 8cbc
-0.023335168 0.49629503 -0.12239278 -0.027290104 -0.029372346 -0.00030058803 -0.054559793 -0.017138796

batchnorm1.running_mean f4 [8]
00000000: 2668 0fbf 0dc5 623f e667 51bf 600d 15bf
00000010: bd3e d83e 60bd c13e 761d 003e 6620 bebf
-0.5601829 0.88581926 -0.8179916 -0.58223534 0.42235366 0.37839794 0.12511238 -1.4853637

batchnorm1.running_var f4 [8]
00000000: e4d4 ca3f 95d0 5140 f6dd c340 e2ff c83f
00000010: 8b61 f93f b4dc fe3e 4d7b 633f 4f06 1b40
1.5846219 3.2783558 6.120845 1.5703089 1.9482893 0.49777758 0.8886002 2.42226

batchnorm2.weight f4 [16]
00000000: 7266 753f 643f 753f 976b 833f 78ce 663f
00000010: 61b0 863f 7262 753f eeef 823f 0ab9 953f
00000020: 9460 873f 702c 6c3f 0db4 7d3f 90ae 723f
00000030: 0b4f 8c3f 2997 713f b854 883f 9aff 833f
0.95859444 0.9579985 1.0267209 0.90158796 1.0522577 0.9585334 1.0229471 1.1697094
1.0576348 0.92255306 0.9910286 0.9479761 1.0961622 0.9437128 1.0650854 1.0312378

batchnorm2.bias f4 [16]
00000000: a98d 8ebe 0b26 fbbe 38c7 90be a676 b5be
00000010: 75a9 51be 9168 b6be 3667 b4be a3f6 d5be
00000020: bcc2 b9be d8d9 02bf 5974 fcbe 68e6 b8be
00000030: 3bfb 9dbe 45d6 50be 7f30 aabe 2213 c2be
-0.27842453 -0.49052462 -0.28276992 -0.35442084 -0.20474799 -0.35626653 -0.35234994 -0.4178973
-0.36281383 -0.51113653 -0.49307516 -0.36113286 -0.30855736 -0.20394237 -0.33240125 -0.37905222

batchnorm2.running_mean f4 [16]
00000000: cb5f 34bf bfe7 f3bd 6afd 103e 875c c3bf
00000010: 09fb ffbf 2d37 7fbf dc24 a9bf 96aa bfbf
00000020: eb1e 37bf 777b 0f3d a926 493e 746b 4dbf
00000030: 9a42 9bbf 080b 95be 10c3 c0bf cd32 54bf
-0.7045867 -0.119094364 0.1415917 -1.5262612 -1.9998485 -0.99693567 -1.3214374 -1.4973934
-0.7153155 0.035029855 0.19643654 -0.80242085 -1.21297 -0.2910998 -1.5059528 -0.82890016

batchnorm2.running_var f4 [16]
00000000: a2fb 1240 b05d 1640 93ac 4340 131b 4140
00000010: e77b 9740 b2ce 2440 f600 3540 ef95 7440
00000020: bcc4 3d40 d7d8 fa3f fec6 3940 5d88 9240
00000030: f70c 2d40 c202 2140 b2d8 9740 fae1 6240
2.2966084 2.3494682 3.057408 3.0172775 4.733875 2.5751157 2.8281837 3.8216512
2.9651327 1.9597424 2.9027705 4.579146 2.7039163 2.5157933 4.745202 3.5450425

fc1.weight f4 [16, 1296]
00000000: 3fad b63b e037 a93b 4ad5 713c 1d53 d7bc
00000010: 51db 0b3c 93ec 3f3c fecd 383b 57ae debc
00000020: 0b36 f8bc 4f71 a9bc b11f 9e3c b704 833c
00000030: abc5 603c 4440 42bb 1702 ca3b aef1 82ba
00000040: 1544 b1bc c788 f2bc a4c2 723b ff8b 1b3b
00000050: a87d 983b 2a3a 623c e6d7 6d3a dc1d a2bb
00000060: 8fd8 31bc a6b7 8fbc 396b 02bd 8fb6 7abc
00000070: ce3c aa3c 5449 1fbc 503e 68bc 11bc 193c
00000080: acfb a13c d9a7 c8bc 75a1 b23b cbf0 943c
00000090: b7f2 56bc a5f1 21bc 01ea cdbc e9b0 f5bb
000000a0: 0f5a dcbc d65f 803b 26ad 20bc 0bf1 5f3c
000000b0: 8357 943c 6e87 00bd 2d61 05bd d808 d43b
000000c0: b229 13b9 96e8 f73b 0a41 d73a d033 0fbc
000000d0: 75f5 c9bc 5cc4 75bb 82b5 823c ec25 21bc
000000e0: b35d bcbb 6331 adbc 5dd5 2b3c 2219 ac3c
000000f0: fbe4 6e3b 46e8 b0bc db29 bcbc 39ce 06bd
00000100: bb69 3a3c c72e db3b 271a 18bc 5ee5 783c
00000110: 481a 643c ac83 8f3c 7e05 b1bc 3308 a43c
00000120: 451c 04bc c2d1 783c 783f 853c 490f 733c
00000130: cd4a 02bd e920 18bb 896e dabc ffbb eabc
00000140: 19a5 9a3c 4b74 39bb f501 d1bc 89ac dabc
00000150: 4868 cabc 685a debc 4820 a83b 2275 95bb
00000160: 5d14 76bc add8 fc3c 7983 2abc 08db fabc
00000170: 9665 643c c1e5 813b 97d2 63bc eca4 7bbc
00000180: a3f9 ebbc eb9f 5c3a bbc2 0b3c f63c 34bc
00000190: 42dc eebb fc17 bbbc 8902 223b c18d ac3a
000001a0: 7ffe ca3b a05a 3c3b a9e2 bdbc 85d1 453c
000001b0: 4cd3 623c 5bc0 513c 2611 c13b ce2b 2fbc
000001c0: f830 a63b afee e0bc 62b9 993c 9e89 03bd
000001d0: 1e01 aa3c 23e3 d3bc fab3 bfbc 8e5e 923b
000001e0: 86c9 f63a d815 d03b 19ab 4e3c ab96 abbb
000001f0: 3156 fcbc 9cd3 9b3c 5d90 cdbc 219c 8b3b
00000200: 38fd b8bb d426 c2bc 601d ddbc e035 b9bb
00000210: 5d2e a73c 899c a7bc fa1c 08bd 77fa 09bc
00000220: d8e1 5c3c c141 b8ba 7106 3dbb 6ca7 323c
00000230: eadd 8ebb 9768 bfbc 31fa 98bc d690 c1bc
00000240: 001e 033c 50fe 2bbb 083b 6abb f50e ecbc
00000250: 2522 6dbc 57df bf3b ad9d 0fba 8832 dbbc
00000260: af91 f6bc 0cf4 e7bc 8508 5e3c 95ba 0b3c
00000270: 7de4 3f3c 2802 e03b a701 30bc 5266 213c
00000280: a61a 90bc caf3 693c 2776 03bd d06a 17bc
00000290: 332b d13b c982 203c 7a58 15bc 7d42 0c3c
000002a0: d4e9 02bd 8013 fa3a 3680 95bc a011 08bd
000002b0: d9ca 80bc 9cca 8b3c 82b3 90bc b0cb 04bd
000002c0: 7b3d 743b 9481 553c 2042 bfbc a490 03bc
000002d0: 0239 a83c 1309 a33b b217 a7bb 61ac 6cbc
000002e0: 14f7 603b 7ee6 8c3b 2c90 88bc 1cb1 3537
000002f0: aa04 45bc d073 ccbc 78f6 e73b f48b 9cbc
00000300: 9723 7abc ff59 9b3c 39c2 e5bc 40c5 c8bc
00000310: 1925 c0bc d363 8a3a e975 163b 5420 b23c
00000320: 5c35 f0bc 0939 5abc a573 233c f766 8dbc
00000330: 02ca 43bc d38d 553c 048e fa3b 1bf2 72bc
00000340: c6e6 8f3c e614 aabc 6290 103b 0b2d 4c3c
00000350: cc8e cbbb 3509 cabc 32e6 04bd 7eca 02bd
00000360: 63e2 8d3c 93af 7ebc 8468 4aba 6f97 a93c
00000370: b942 8c3a d9cc 733b 0463 a0bc 3e84 bdbb
00000380: 52dd d9bc 3883 b5bc 6108 6fbc ab0f 573c
00000390: 5291 8bba f1f2 9bbc cc8c 37bc 8967 7ebb
000003a0: ec63 2bbc 001f 09bd ccaf b73b e465 243c
000003b0: 2f94 c8bc 97e2 31bc e8db 22bb cf01 693c
000003c0: 6c50 8a3c 2d87 20bc e769 d8bc 6b08 033a
000003d0: b353 e93a 6680 09bd 7edc b139 7a97 e3bc
000003e0: 7016 9ebc 0a66 07bd e807 a8bc 6043 593c
000003f0: bf59 b43b 5e7a c2bb 6f42 dfbb f61f 613b
0.0055748518 0.0051641315 0.014760325 -0.026284749 0.008536176 0.0117141185 0.0028198953 -0.027182741
-0.030299207 -0.020683913 0.019302221 0.01599346 0.013719003 -0.0029640356 0.0061648 -0.0009990239
-0.02163891 -0.029606236 0.0037042284 0.0023734567 0.0046536513 0.013807813 0.0009073004 -0.004947407
-0.010854854 -0.017543625 -0.031840537 -0.015302314 0.020780947 -0.009722073 -0.014175013 0.009383217
0.019773327 -0.024494098 0.005451376 0.018181225 -0.013119391 -0.009884273 -0.025135996 -0.007497896
-0.026898412 0.0039176745 -0.009806907 0.013668309 0.018108135 -0.031379156 -0.032563377 0.006470781
-0.00014034545 0.007565568 0.0016422581 -0.00874038 -0.024653176 -0.0037501073 0.01595569 -0.009835701
-0.0057484745 -0.021141713 0.0104878815 0.021008078 0.00364524 -0.021595132 -0.022969177 -0.032911513
0.011377747 0.006688926 -0.009283579 0.015191404 0.013922282 0.01751884 -0.021609064 0.020023441
-0.008063381 0.015186729 0.016265616 0.014835187 -0.031809617 -0.0023212975 -0.026664035 -0.028654097
0.018877553 -0.0028298076 -0.025513628 -0.0266936 -0.024707928 -0.027142718 0.0051308013 -0.0045610825
-0.015019503 0.030865038 -0.010407322 -0.03062202 0.013940236 0.0039641564 -0.013905189 -0.015359145
-0.02880556 0.00084161636 0.008530314 -0.011000862 -0.0072894404 -0.022838585 0.002472075 0.0013164805
0.006194889 0.002874054 -0.023179369 0.012073879 0.013844322 0.012802209 0.005891937 -0.010691596
0.0050717555 -0.027457563 0.018765155 -0.032113664 0.020752486 -0.025865143 -0.02340125 0.004466838
0.0018828369 0.00635026 0.012614035 -0.005236467 -0.030802818 0.019021802 -0.025093252 0.0042605554
-0.0056454204 -0.023700155 -0.026991546 -0.0056521744 0.02040785 -0.020460384 -0.03323076 -0.008421532
0.01348158 -0.0014057682 -0.002884295 0.010904174 -0.0043599503 -0.023365302 -0.018673988 -0.023628633
0.008002758 -0.0026244111 -0.0035740752 -0.028815726 -0.014473473 0.0058554816 -0.00054785126 -0.026757494
-0.030098764 -0.028314613 0.013551836 0.008528371 0.011712191 0.0068361945 -0.010742581 0.009851055
-0.017590832 0.014279315 -0.0320951 -0.009241775 0.0063833236 0.009796807 -0.009115333 0.008560774
-0.031961277 0.0019079298 -0.018249612 -0.033219934 -0.015721725 0.017064385 -0.017663721 -0.032420814
0.003726809 0.013031382 -0.02334696 -0.0080300905 0.020534996 0.004975447 -0.0050992602 -0.014445395
0.0034326958 0.0042999377 -0.016670309 1.0829677e-05 -0.012025038 -0.024957567 0.007078942 -0.019109704
-0.015267274 0.018963812 -0.028046714 -0.024508119 -0.02345519 0.0010558314 0.0022958464 0.02174393
-0.029322319 -0.013319262 0.009976302 -0.017261012 -0.011950018 0.013034302 0.007646324 -0.01482823
0.017566096 -0.020761918 0.0022058715 0.012461911 -0.006212091 -0.024662593 -0.032446094 -0.031931393
0.017319864 -0.01554479 -0.00077212625 0.020702092 0.0010701037 0.0037200956 -0.019578464 -0.0057835868
-0.026594792 -0.022157297 -0.0145894 0.013126294 -0.0010648167 -0.019036742 -0.011203002 -0.0038819036
-0.010460835 -0.03347683 0.0056056734 0.010034058 -0.024484722 -0.010857246 -0.0024850313 0.014221623
0.016884051 -0.009797853 -0.026417686 0.0004998508 0.0017801434 -0.033569716 0.0003392435 -0.02778219
-0.019297808 -0.033056296 -0.020511582 0.013260692 0.0055038626 -0.0059349975 -0.0068133394 0.0034351326

fc1.bias f4 [16]
00000000: 6a2b 05bb 7541 bfbc 277d f33a 1af1 b9bc
00000010: fc29 753c 6b8f 7bbc 7e6c 313d a4f5 24bc
00000020: c35c e83b edf7 8c3c f15a 983d ee60 833c
00000030: a93a 0c3d 1580 7c3d 4173 013d 6227 a7b8
-0.0020320066 -0.023346642 0.0018576727 -0.022697974 0.014963623 -0.015354018 0.043316357 -0.010068331
0.007091136 0.017208064 0.07439221 0.01603743 0.03423563 0.061645586 0.031604055 -7.970516e-05

fc2.weight f4 [2, 16]
00000000: 18db 1dbe 0b7f 6abd ed35 8fbe 194b f73d
00000010: d913 4fbe fba5 073e d475 083e 4528 943d
00000020: ed0b 54bd 5448 b13d cde0 2e3e cbef 33be
00000030: 49e2 723e fb44 9a3e 4958 1f3e c5ca 9b3d
00000040: a6b3 683d ea3f ecbc 36ad c33e ab2e a13d
00000050: afc1 913d bc7b 0fbe ac48 76be 28fb 363e
00000060: 3917 593e 70cb d53d 8a0f 28be d36c 883d
00000070: efaa c6bd 56ed a3bc 5f6b b7be 4d1e 083e
-0.15415609 -0.057250064 -0.2797083 0.120748706 -0.20222415 0.1324691 0.13326198 0.07234243
-0.051769186 0.086563736 0.17077942 -0.17571943 0.23719133 0.30130753 0.15561022 0.076070346
0.05681195 -0.02883907 0.38218087 0.07870229 0.0711702 -0.14012045 -0.2405116 0.17869246
0.21200265 0.10439193 -0.16412178 0.066613816 -0.09700572 -0.020010632 -0.35824105 0.13292809

fc2.bias f4 [2]
00000000: da20 54bf d738 853f
-0.8286263 1.0407971
