Method 2 Knowledge Distilation-Prunnig/pruned_model.pth (torch, 106550 bytes, 34 tensors)

conv1.bias f4 [8]
00000000: 4d28 863e 5db5 84bf 0a2a 67bf 5678 133f
00000010: 9bc2 1ebf 0c68 d1bd c2cd 33be 49f6 2dbf
0.26202622 -1.0367848 -0.9029852 0.57605493 -0.62015694 -0.102249235 -0.17558959 -0.67953926

conv1.weight_orig f4 [8, 3, 3, 3]
00000000: 6e9b 98bf 91e2 61bf 666a 9abe a3f4 8dbe
00000010: cd0b 15be a163 853e faf0 5f3d 8677 653e
00000020: eb6b f23e 707f 12bf 423e 3ebe b9bf a43c
00000030: 20a6 7cbc 0fa5 f53e 80db 263f a076 e03e
00000040: a2a8 763f 1e83 a93f a765 86bf 9460 2dbf
00000050: cb3d 0abf 9c84 d1be c901 bcbe bcba 9ebc
00000060: 8350 ec3d 1cf4 c23e 8a98 573f c403 2e3f
00000070: c842 463f 9fb5 4a3f f986 49be b261 aabe
00000080: 9791 313d 20ae 83bf 24e7 96bf b435 93bf
00000090: 1bd9 2b3f ec98 413f 9795 fb3e ba46 c23e
000000a0: 52fd 0d3e 73d9 fd3d 0850 0dbe 1f3f a3be
000000b0: 8747 23bf 4e6d 0c3f 38a9 ce3e 547d 4bbd
000000c0: f792 6f3e 0c94 5ebe 13c3 7ebe d8cc c8be
000000d0: e43b d3be d7f9 44bf f367 213e 7873 c13e
000000e0: 9535 683e 1427 da3e c02e 253f f57a dc3e
000000f0: 39ea 33bd a4a5 be3e b711 2a3f 8233 593e
00000100: 86dc 053f 8eb0 5b3f d3a6 89be d323 033f
00000110: 5b73 353f 8fd1 9fbf 5229 a7be 04c9 22bb
00000120: c749 9ebf 3387 97be a1cf c2be f44b 6cbf
00000130: cbae c8be 026e 84be fd32 89bf 6a97 1dbf
00000140: 2b9a fabe 0718 07bf c71d c9be ddaa 103e
00000150: bd96 edbe be42 8d3d 9f23 c03e 6861 71be
00000160: ea04 a83d 0d0d 883f bb7f a9bf 1014 a1bf
00000170: a548 c23d d799 7ebf 256c 72be fe36 b63f
00000180: 7656 fdbf 655f 8abf 98cd af3e 1b31 d3bd
00000190: 730e 51be 84bd 543e e05d 58be 8c6f 8fbd
000001a0: eeef 943e d97e 92be 5c27 0d3d af18 743e
000001b0: 69d5 3b3d a2ff 68bc fc58 073d df8d 9a3e
000001c0: 930f c23e 42e9 c53e 8385 d93e bf27 333f
000001d0: 941c 143f e7b0 19bd 5666 823e 7663 23be
000001e0: 5ccd 113c 027f df3d 6cbe b3be 9434 c7be
000001f0: 35a7 53be ec44 cebe 7e7e 56bf 2cb3 83bf
00000200: 3b73 cabf 0a0f 54bf 618a 4dbf f22a 91bf
00000210: f75d 85bf 88d2 88bf f93c c7bf 78e8 48be
00000220: 676e 66be c4e7 b5be a665 20bf 8e62 46bf
00000230: 7356 a3be 5eed 44be 1c71 50be b378 e4bd
00000240: 8d64 3bbf b676 5fbf 57d3 71bf 210b 07bf
00000250: 63d7 56bf c275 20bf 362a 03be 74a6 9cbe
00000260: 115f c9bd cdfc 063f 77c4 a93e e067 883e
00000270: 19b1 323f fb04 2f3f 066d ef3e ee88 763f
00000280: 4aa0 373f 9e4b 683f fb17 493f db18 183f
00000290: b51b b03e 9c04 2f3f 62d1 9e3e d6ff c73e
000002a0: 751e ee3d ba7b f5be 9c77 433d 2bb9 2d3f
000002b0: 1ebc dc3e f731 4c3f 53d3 c9be 91eb bebe
000002c0: e12a 78be 7538 a0bf 5cfb aebf ee38 92bf
000002d0: ae81 2c3f e99a c93e 84ce 6d3e 30f8 6f3f
000002e0: 50b2 923e 6189 2b3e cc09 1f3f 39fd 053e
000002f0: 09d7 5fbe 4ad7 aebe 2e91 8ebe 26a1 27bd
00000300: e1f1 4f3d 9f09 a6bd f258 9b3d 6526 203e
00000310: 8f9b 213f d943 cd3e a62d ccbf b2d0 a1bf
00000320: bd4f 96be b149 8cbe b8fa 53be beb6 e43e
00000330: c933 d23e d02d 8d3f 8d5b 9a3f cb26 57bf
00000340: becf 15bf f5a4 0a3e 7cbe b6be c10e 6b3c
00000350: 109c a53e 1b70 a83e ec75 2f3f 3bc9 5f3f
-1.1922433 -0.8823634 -0.301593 -0.27725706 -0.14555283 0.26052573 0.054673173 0.22408876
0.4734796 -0.57225704 -0.18578437 0.020110952 -0.015420467 0.47977492 0.6517868 0.43840504
0.96351063 1.3243139 -1.0499772 -0.6772549 -0.5400054 -0.40921485 -0.36720112 -0.019376151
0.11538794 0.38076866 0.8421713 0.67974496 0.7744565 0.7918338 -0.19680394 -0.3327766
0.043351736 -1.0287514 -1.1789289 -1.1500764 0.6712815 0.75623965 0.49137565 0.37944585
0.13866165 0.12394991 -0.13800061 -0.31884095 -0.6378102 0.54854286 0.4036348 -0.04968007
0.23395906 -0.21736163 -0.24879102 -0.39218783 -0.4125663 -0.76943725 0.1576231 0.37783408
0.2267669 0.4260794 0.6452446 0.4306256 -0.043924544 0.3723575 0.6643328 0.21211055
0.5228962 0.85816276 -0.2688509 0.5122654 0.70879143 -1.2485827 -0.32648712 -0.0024839053
-1.2366265 -0.29595336 -0.38049033 -0.92303395 -0.39195856 -0.2586518 -1.0718685 -0.61559165
-0.48945746 -0.5277104 -0.3928053 0.14127679 -0.46404067 0.06897496 0.37527177 -0.23572314
0.08204062 1.0628983 -1.3242105 -1.2584248 0.09486512 -0.9945349 -0.23674066 1.4235532
-1.9792011 -1.0810362 0.34336543 -0.103121005 -0.20415668 0.2077542 -0.2112956 -0.07003698
0.29089302 -0.28612402 0.034461364 0.23837541 0.04585782 -0.014221104 0.033043846 0.30186364
0.37902507 0.38654524 0.42484674 0.6998252 0.57856107 -0.037522223 0.254687 -0.1595591
0.008899059 0.10912897 -0.35106218 -0.389073 -0.20669253 -0.40286958 -0.8378676 -1.0289054
-1.5816416 -0.8283545 -0.80289274 -1.1341231 -1.0419301 -1.0689249 -1.5565482 -0.1961993
-0.22503053 -0.35528386 -0.62655103 -0.7749413 -0.31901893 -0.19231173 -0.20355648 -0.11155834
-0.73200303 -0.87290514 -0.94463104 -0.52751356 -0.83922404 -0.62679684 -0.12809071 -0.30595744
-0.098325856 0.52729493 0.33157703 0.2664175 0.6980148 0.68366975 0.46762866 0.9630269
0.71728957 0.9074038 0.78552216 0.59412926 0.3439614 0.6836641 0.3101912 0.39062375
0.11626903 -0.47945958 0.04772149 0.6786067 0.43112272 0.7976374 -0.3941904 -0.37289098
-0.24235107 -1.2517229 -1.3670459 -1.1423624 0.67385375 0.39376 0.2322331 0.9373808
0.28651667 0.16751625 0.62124324 0.13084878 -0.21859373 -0.34148628 -0.27845138 -0.040925168
0.050767783 -0.08107304 0.07585324 0.15639646 0.6312799 0.40090826 -1.5951431 -1.2641814
-0.2935771 -0.27399972 -0.2070111 0.4467067 0.41055134 1.1029606 1.2059189 -0.8404357
-0.58520114 0.13539489 -0.35692203 0.014346779 0.3234563 0.3289803 0.6853931 0.8741643

conv1.weight_mask f4 [8, 3, 3, 3]
00000000: 0000 803f 0000 803f 0000 0000 0000 0000
00000010: 0000 0000 0000 0000 0000 0000 0000 0000
00000020: 0000 803f 0000 803f 0000 0000 0000 0000
00000030: 0000 0000 0000 803f 0000 803f 0000 803f
00000040: 0000 803f 0000 803f 0000 803f 0000 803f
00000050: 0000 803f 0000 0000 0000 0000 0000 0000
00000060: 0000 0000 0000 0000 0000 803f 0000 803f
00000070: 0000 803f 0000 803f 0000 0000 0000 0000
00000080: 0000 0000 0000 803f 0000 803f 0000 803f
00000090: 0000 803f 0000 803f 0000 803f 0000 0000
000000a0: 0000 0000 0000 0000 0000 0000 0000 0000
000000b0: 0000 803f 0000 803f 0000 0000 0000 0000
000000c0: 0000 0000 0000 0000 0000 0000 0000 0000
000000d0: 0000 803f 0000 803f 0000 0000 0000 803f
000000e0: 0000 803f 0000 803f 0000 803f 0000 803f
000000f0: 0000 0000 0000 0000 0000 803f 0000 0000
00000100: 0000 803f 0000 803f 0000 0000 0000 803f
00000110: 0000 803f 0000 803f 0000 0000 0000 0000
00000120: 0000 803f 0000 0000 0000 0000 0000 803f
00000130: 0000 0000 0000 0000 0000 803f 0000 803f
00000140: 0000 803f 0000 803f 0000 0000 0000 0000
00000150: 0000 803f 0000 0000 0000 0000 0000 0000
00000160: 0000 0000 0000 803f 0000 803f 0000 803f
00000170: 0000 0000 0000 803f 0000 0000 0000 803f
00000180: 0000 803f 0000 803f 0000 0000 0000 0000
00000190: 0000 0000 0000 0000 0000 0000 0000 0000
000001a0: 0000 803f 0000 0000 0000 0000 0000 803f
000001b0: 0000 0000 0000 0000 0000 0000 0000 803f
000001c0: 0000 803f 0000 803f 0000 803f 0000 803f
000001d0: 0000 803f 0000 0000 0000 0000 0000 0000
000001e0: 0000 0000 0000 0000 0000 0000 0000 0000
000001f0: 0000 0000 0000 0000 0000 803f 0000 803f
00000200: 0000 803f 0000 803f 0000 803f 0000 803f
00000210: 0000 803f 0000 803f 0000 803f 0000 0000
00000220: 0000 0000 0000 0000 0000 803f 0000 803f
00000230: 0000 0000 0000 0000 0000 0000 0000 0000
00000240: 0000 803f 0000 803f 0000 803f 0000 803f
00000250: 0000 803f 0000 803f 0000 0000 0000 0000
00000260: 0000 0000 0000 803f 0000 0000 0000 0000
00000270: 0000 803f 0000 803f 0000 803f 0000 803f
00000280: 0000 803f 0000 803f 0000 803f 0000 803f
00000290: 0000 0000 0000 803f 0000 0000 0000 0000
000002a0: 0000 0000 0000 803f 0000 0000 0000 803f
000002b0: 0000 803f 0000 803f 0000 0000 0000 0000
000002c0: 0000 0000 0000 803f 0000 803f 0000 803f
000002d0: 0000 803f 0000 0000 0000 0000 0000 803f
000002e0: 0000 0000 0000 0000 0000 803f 0000 0000
000002f0: 0000 0000 0000 803f 0000 803f 0000 0000
00000300: 0000 0000 0000 0000 0000 0000 0000 0000
00000310: 0000 803f 0000 0000 0000 803f 0000 803f
00000320: 0000 0000 0000 0000 0000 0000 0000 803f
00000330: 0000 0000 0000 803f 0000 803f 0000 803f
00000340: 0000 803f 0000 0000 0000 0000 0000 0000
00000350: 0000 0000 0000 0000 0000 803f 0000 803f
1.0 1.0 0.0 0.0 0.0 0.0 0.0 0.0
1.0 1.0 0.0 0.0 0.0 1.0 1.0 1.0
1.0 1.0 1.0 1.0 1.0 0.0 0.0 0.0
0.0 0.0 1.0 1.0 1.0 1.0 0.0 0.0
0.0 1.0 1.0 1.0 1.0 1.0 1.0 0.0
0.0 0.0 0.0 0.0 1.0 1.0 0.0 0.0
0.0 0.0 0.0 0.0 1.0 1.0 0.0 1.0
1.0 1.0 1.0 1.0 0.0 0.0 1.0 0.0
1.0 1.0 0.0 1.0 1.0 1.0 0.0 0.0
1.0 0.0 0.0 1.0 0.0 0.0 1.0 1.0
1.0 1.0 0.0 0.0 1.0 0.0 0.0 0.0
0.0 1.0 1.0 1.0 0.0 1.0 0.0 1.0
1.0 1.0 0.0 0.0 0.0 0.0 0.0 0.0
1.0 0.0 0.0 1.0 0.0 0.0 0.0 1.0
1.0 1.0 1.0 1.0 1.0 0.0 0.0 0.0
0.0 0.0 0.0 0.0 0.0 0.0 1.0 1.0
1.0 1.0 1.0 1.0 1.0 1.0 1.0 0.0
0.0 0.0 1.0 1.0 0.0 0.0 0.0 0.0
1.0 1.0 1.0 1.0 1.0 1.0 0.0 0.0
0.0 1.0 0.0 0.0 1.0 1.0 1.0 1.0
1.0 1.0 1.0 1.0 0.0 1.0 0.0 0.0
0.0 1.0 0.0 1.0 1.0 1.0 0.0 0.0
0.0 1.0 1.0 1.0 1.0 0.0 0.0 1.0
0.0 0.0 1.0 0.0 0.0 1.0 1.0 0.0
0.0 0.0 0.0 0.0 1.0 0.0 1.0 1.0
0.0 0.0 0.0 1.0 0.0 1.0 1.0 1.0
1.0 0.0 0.0 0.0 0.0 0.0 1.0 1.0

bn1.weight f4 [8]
00000000: de8a 0f3f 00e0 933f 3560 ca3f 0514 a33f
00000010: aa91 663f f7fe f53e a4c0 033f 5ba8 1940
0.5607127 1.1552734 1.581061 1.2740484 0.90066016 0.48046085 0.5146582 2.4009006

bn1.bias f4 [8]
00000000: 7d3c 723e f0c7 3d3e 2efd 3b3f 371d 84bf
00000010: 2489 92bd 515a 233d f91e 9c3e 6325 933f
0.23655887 0.18533301 0.73433197 -1.0321416 -0.07155064 0.039881054 0.3049238 1.1495785

bn1.running_mean f4 [8]
00000000: 9bae 503e cd96 a2bf d7f5 07bf 8496 3fbf
00000010: 114e 03c0 b36d 2fbf c18b fb3e 16b5 2bbf
0.20379107 -1.2702271 -0.53109497 -0.74839044 -2.0516398 -0.6852676 0.4913006 -0.6707319

bn1.running_var f4 [8]
00000000: db2d ee3d ffeb df3d eb9a 8c3e 76c8 8b3f
00000010: 17dc 0340 2177 a23e 9458 9b3e 1c15 753d
0.1162984 0.109336846 0.27461943 1.0920551 2.0603082 0.31731513 0.30341017 0.059834585

conv2.bias f4 [8]
00000000: 008a 8d3f ebff 47bf 6226 ec3e a08b 28bf
00000010: 68bb 3e3e c981 9dbf 37c2 00bf e932 89bf
1.1057739 -0.78124875 0.46123034 -0.6583805 0.18626177 -1.2305232 -0.5029635 -1.0718662

conv2.weight_orig f4 [8, 8, 5, 5]
00000000: 9f05 d4bd d22d 1cbe 7d78 68be e096 bdbe
00000010: 4a4f 20bf d2b2 50be 98e5 b1bc 9f6e f1bd
00000020: bca7 8bbe 11ae ebbe c3bd 8fbd 353a 563d
00000030: e4bb e1bc 973f 40be 11f0 bdbe a84d 90be
00000040: df08 22be 426d bbbe 0534 0fbf ab8c 23bf
00000050: d860 10bf 6349 c4be cc5d 05bf a67f 43bf
00000060: bd46 76bf 8d32 a2be 6651 9bbe 3e02 aabe
00000070: 36f0 87be c1ee d23c 1a15 873e faa5 d43d
00000080: 9675 06bd 867f 073e fdaa 223f 7902 8a3d
00000090: 9a9d 4f3e b166 7f3e 26c7 723f 938f 873f
000000a0: d21f 403e eaae a03e 8003 6d3e 554d 863f
000000b0: f237 a73f 8d72 c23e 8d5b 613e 116a 9ebb
000000c0: 6792 663e c984 bf3e af19 b93e ef5c c23e
000000d0: 06fc 313e f356 39be 7c4e efbe 7a79 0f3f
000000e0: faaa c73e 5fdb 813e 0aa2 9e3b 6723 85be
000000f0: f024 f63e 7269 ea3e 5b0f 9b3e 4843 76bb
00000100: 6e02 7fbe 36c8 fa3e 9ee6 a93e 1983 a93d
00000110: 8801 c9be 1906 0ebf b6dc c93e ece7 6e3e
00000120: 4573 22be c79a 2abf e77c 6ebf 1218 a3be
00000130: 61c0 77bf e407 bbbf f0f1 e0bf 3db8 f6bf
00000140: 8569 eebe 8d7f 5cbf 7784 a6bf 9df5 cabf
00000150: 6ceb f1bf ddb2 2ebf 2cce 83bf 4cc5 c7bf
00000160: 02fc e3bf f86a fdbf f867 0bbe 4958 cabe
00000170: 7f94 71bf 0705 88bf 69e1 8bbf f43b 6b3e
00000180: fa7b b43d 403c 69be c4c9 78be 612f 85be
00000190: d5e4 47bf 3e65 9abf 7da3 95bf 6527 66bf
000001a0: 9bc6 35bf 3985 a2be c02e 10bf 142c 0fbf
000001b0: 6d21 7fbe 2206 82be c80c 9abe a009 14bf
000001c0: 936e 1bbf 9cd6 83be aedc babe c2ff 05be
000001d0: 1cda 93be 20e6 aebe d69e 53be 27c4 66be
000001e0: 6596 c9bd c84a a3be a7cc a1be dfaf 0bbc
000001f0: 039b d73d 6bf8 9cbe 2d40 5cbe 0d9c f0be
00000200: c2a6 46bf a873 82bf 5076 09bf 293f 0abf
00000210: 833e 31bf 06ae 88bf ef86 a2bf 39c6 51bf
00000220: b8b2 73bf 2798 94bf cd48 aebf 7e55 bcbf
00000230: b584 3bbf 5406 42bf cac2 54bf a6dc 85bf
00000240: 6d94 8dbf 7839 9bbe ec40 8fbe 8311 dabe
00000250: 9a31 0cbf 4b36 26bf 0cb8 3abf 0675 24be
00000260: 668d 9c3e 57e9 343f 01fa 353f d144 2bbf
00000270: e9c9 7cbe 6569 603e e042 023f d2b4 083f
00000280: 1d98 41bf 6cbd bcbe c493 883d 340c 8d3e
00000290: 9b77 bd3e a970 6bbf 283d b7be e9df c73c
000002a0: 2be1 473e 8e33 973e b760 8ebf 0be2 27bf
000002b0: f5f7 cdbd a47a 5b3e 82fd 6f3e 6adf 1b3f
000002c0: e42e b5be 282b b6bf 4877 febf e0f8 febf
000002d0: cce1 1b3f 9e11 783d a2c2 33bf 6b28 a4bf
000002e0: d62c b3bf 8520 b63f 2c8c a03f 0e5d 313f
000002f0: b4f4 6d3e e338 24be c9e9 623f f373 753f
00000300: 8387 ae3e 2fea 61be 4eed 46bf ae26 723f
00000310: 2d1d 943f b1ad 6e3f 55fd be3e 5762 b9be
00000320: 824b 87be 3a28 d9be e03b c3be df31 c0be
00000330: 16e9 c5be e15a 133e 2fc5 253d 9252 1c3e
00000340: 1279 4b3e 15fe 9e3d 6763 673f 4342 443f
00000350: 5ea5 6c3f b567 823f 3b6a 5e3f 775c 973f
00000360: 7834 853f 98fd ad3f ac14 b53f d0ef a13f
00000370: 5511 a33f 88ac 843f d357 9f3f d801 883f
00000380: ea96 5d3f 1006 173f 7a54 2f3f 0e9d 4d3f
00000390: c9dd 4b3f b70f 1c3f b9d8 643f 4f3e 1f3f
000003a0: 78e8 b53e 5445 393f 2e7e 9a3f 39cb fa3d
000003b0: 554a a3be 39b9 c5be dd2c 2fbe 8310 a73e
000003c0: 7306 c5bc 645b 853c a2df 94bd c086 103e
000003d0: 5c30 bc3e 692c b9be 0e22 92be a4b1 4ebe
000003e0: 29e7 933c 4949 2e3f c92e 4d3f 3926 82bc
000003f0: d235 3a3d e733 7b3e 6a8e aa3e d322 3e3f
-0.10352635 -0.15251854 -0.22702213 -0.3702917 -0.62620986 -0.20380715 -0.021715924 -0.117886774
-0.2727641 -0.4603124 -0.07018616 0.052301604 -0.027555414 -0.18774258 -0.3709722 -0.28184247
-0.15823697 -0.36606795 -0.5593875 -0.6388652 -0.5639777 -0.3833724 -0.5209625 -0.7636665
-0.9620169 -0.31679192 -0.3033554 -0.33204836 -0.26550454 0.025748612 0.26383287 0.1038322
-0.032826982 0.1323224 0.6354216 0.06738753 0.20274964 0.24941517 0.94835126 1.059069
0.18762138 0.3138345 0.23145866 1.049235 1.3063948 0.3797802 0.2200758 -0.0048344214
0.22516786 0.37405995 0.36152408 0.37961528 0.17381296 -0.18099575 -0.46739566 0.56044734
0.38997632 0.2536268 0.004841094 -0.26003572 0.48075056 0.45783573 0.30285153 -0.0037576724
-0.2490327 0.48980874 0.3318376 0.08276958 -0.3925898 -0.55478054 0.39426202 0.23330659
-0.15864284 -0.6664242 -0.93159336 -0.31854302 -0.9677792 -1.4611783 -1.7573833 -1.9274975
-0.4656488 -0.8613213 -1.3009175 -1.5856205 -1.889997 -0.68241674 -1.0297294 -1.5607085
-1.7811282 -1.9798269 -0.1361388 -0.3952048 -0.9436721 -1.0626534 -1.0928165 0.22972089
0.08812709 -0.2277689 -0.24295717 -0.2601271 -0.78083545 -1.2062147 -1.1690518 -0.8990386
-0.7100617 -0.31742266 -0.56321335 -0.5592663 -0.24915095 -0.25395304 -0.30087876 -0.57827187
-0.607156 -0.2574967 -0.3649649 -0.13085845 -0.28877342 -0.34159946 -0.2066606 -0.22535764
-0.098431386 -0.3189299 -0.3160145 -0.008525818 0.10527613 -0.30658278 -0.21508856 -0.46994057
-0.775982 -1.0191545 -0.53696156 -0.54002625 -0.6923601 -1.0678108 -1.2697428 -0.8194309
-0.9519458 -1.1608933 -1.3615967 -1.471359 -0.7324937 -0.75790906 -0.83109725 -1.0457962
-1.1060921 -0.30317283 -0.2797922 -0.42591485 -0.54763186 -0.64926594 -0.72937083 -0.16060266
0.30576628 0.7066855 0.710846 -0.6690188 -0.24686398 0.21915205 0.50883293 0.5340091
-0.7562273 -0.36863267 0.06668809 0.27548373 0.37005314 -0.9196878 -0.35788846 0.02439876
0.19519489 0.2953152 -1.1123265 -0.6557929 -0.1005706 0.21433502 0.2343655 0.6088778
-0.35387337 -1.423192 -1.9880152 -1.9919701 0.60891414 0.060563676 -0.7021886 -1.2824835
-1.3998058 1.4228674 1.2542777 0.69282615 0.23237878 -0.16037326 0.8863798 0.9588005
0.34087762 -0.2206199 -0.7770585 0.9459027 1.1571404 0.9323378 0.37302652 -0.3620784
-0.26424795 -0.42413503 -0.38131618 -0.3753805 -0.38654393 0.14390136 0.040471252 0.15265873
0.19870403 0.07763306 0.9038605 0.7666361 0.9243983 1.0187899 0.86880845 1.1825093
1.0406637 1.3593016 1.4146934 1.265131 1.2739664 1.0365152 1.2448677 1.0625563
0.865584 0.58993626 0.68488276 0.8031777 0.7963529 0.6096148 0.8939319 0.6220445
0.35528922 0.7237141 1.2069757 0.12245793 -0.31892648 -0.38617876 -0.17106958 0.32629785
-0.024050927 0.01627893 -0.07269217 0.14113903 0.36755645 -0.36166695 -0.28541607 -0.20184952
0.018054562 0.68080574 0.80149513 -0.015887367 0.045461483 0.24531518 0.33311778 0.7427189

conv2.weight_mask f4 [8, 8, 5, 5]
00000000: 0000 0000 0000 0000 0000 0000 0000 803f
00000010: 0000 803f 0000 0000 0000 0000 0000 0000
00000020: 0000 0000 0000 803f 0000 0000 0000 0000
00000030: 0000 0000 0000 0000 0000 0000 0000 0000
00000040: 0000 0000 0000 0000 0000 803f 0000 803f
00000050: 0000 803f 0000 0000 0000 803f 0000 803f
00000060: 0000 803f 0000 0000 0000 803f 0000 803f
00000070: 0000 0000 0000 0000 0000 0000 0000 0000
00000080: 0000 0000 0000 0000 0000 803f 0000 0000
00000090: 0000 0000 0000 0000 0000 803f 0000 803f
000000a0: 0000 0000 0000 0000 0000 0000 0000 803f
000000b0: 0000 803f 0000 0000 0000 0000 0000 0000
000000c0: 0000 0000 0000 0000 0000 0000 0000 0000
000000d0: 0000 0000 0000 0000 0000 803f 0000 803f
000000e0: 0000 0000 0000 0000 0000 0000 0000 0000
000000f0: 0000 803f 0000 803f 0000 0000 0000 0000
00000100: 0000 0000 0000 803f 0000 0000 0000 0000
00000110: 0000 0000 0000 803f 0000 803f 0000 0000
00000120: 0000 0000 0000 803f 0000 803f 0000 0000
00000130: 0000 803f 0000 803f 0000 803f 0000 803f
00000140: 0000 803f 0000 803f 0000 803f 0000 803f
00000150: 0000 803f 0000 803f 0000 803f 0000 803f
00000160: 0000 803f 0000 803f 0000 0000 0000 803f
00000170: 0000 803f 0000 803f 0000 803f 0000 0000
00000180: 0000 0000 0000 0000 0000 803f 0000 0000
00000190: 0000 803f 0000 803f 0000 803f 0000 803f
000001a0: 0000 803f 0000 0000 0000 803f 0000 803f
000001b0: 0000 0000 0000 0000 0000 0000 0000 803f
000001c0: 0000 803f 0000 0000 0000 0000 0000 0000
000001d0: 0000 0000 0000 0000 0000 0000 0000 0000
000001e0: 0000 0000 0000 0000 0000 0000 0000 0000
000001f0: 0000 0000 0000 0000 0000 803f 0000 803f
00000200: 0000 803f 0000 803f 0000 803f 0000 803f
00000210: 0000 803f 0000 803f 0000 803f 0000 803f
00000220: 0000 803f 0000 803f 0000 803f 0000 803f
00000230: 0000 803f 0000 803f 0000 803f 0000 803f
00000240: 0000 803f 0000 803f 0000 803f 0000 803f
00000250: 0000 803f 0000 803f 0000 803f 0000 0000
00000260: 0000 0000 0000 803f 0000 803f 0000 803f
00000270: 0000 0000 0000 0000 0000 803f 0000 803f
00000280: 0000 803f 0000 0000 0000 0000 0000 0000
00000290: 0000 0000 0000 803f 0000 803f 0000 0000
000002a0: 0000 0000 0000 0000 0000 803f 0000 803f
000002b0: 0000 0000 0000 0000 0000 0000 0000 803f
000002c0: 0000 803f 0000 803f 0000 803f 0000 803f
000002d0: 0000 803f 0000 0000 0000 803f 0000 803f
000002e0: 0000 803f 0000 803f 0000 803f 0000 803f
000002f0: 0000 0000 0000 0000 0000 803f 0000 803f
00000300: 0000 803f 0000 0000 0000 803f 0000 803f
00000310: 0000 803f 0000 803f 0000 0000 0000 0000
00000320: 0000 0000 0000 803f 0000 803f 0000 803f
00000330: 0000 0000 0000 0000 0000 0000 0000 0000
00000340: 0000 0000 0000 0000 0000 803f 0000 803f
00000350: 0000 803f 0000 803f 0000 803f 0000 803f
00000360: 0000 803f 0000 803f 0000 803f 0000 803f
00000370: 0000 803f 0000 803f 0000 803f 0000 803f
00000380: 0000 803f 0000 803f 0000 803f 0000 803f
00000390: 0000 803f 0000 803f 0000 803f 0000 803f
000003a0: 0000 0000 0000 803f 0000 803f 0000 0000
000003b0: 0000 0000 0000 0000 0000 0000 0000 0000
000003c0: 0000 0000 0000 0000 0000 0000 0000 0000
000003d0: 0000 0000 0000 0000 0000 0000 0000 0000
000003e0: 0000 0000 0000 803f 0000 803f 0000 0000
000003f0: 0000 0000 0000 0000 0000 803f 0000 803f
0.0 0.0 0.0 1.0 1.0 0.0 0.0 0.0
0.0 1.0 0.0 0.0 0.0 0.0 0.0 0.0
0.0 0.0 1.0 1.0 1.0 0.0 1.0 1.0
1.0 0.0 1.0 1.0 0.0 0.0 0.0 0.0
0.0 0.0 1.0 0.0 0.0 0.0 1.0 1.0
0.0 0.0 0.0 1.0 1.0 0.0 0.0 0.0
0.0 0.0 0.0 0.0 0.0 0.0 1.0 1.0
0.0 0.0 0.0 0.0 1.0 1.0 0.0 0.0
0.0 1.0 0.0 0.0 0.0 1.0 1.0 0.0
0.0 1.0 1.0 0.0 1.0 1.0 1.0 1.0
1.0 1.0 1.0 1.0 1.0 1.0 1.0 1.0
1.0 1.0 0.0 1.0 1.0 1.0 1.0 0.0
0.0 0.0 1.0 0.0 1.0 1.0 1.0 1.0
1.0 0.0 1.0 1.0 0.0 0.0 0.0 1.0
1.0 0.0 0.0 0.0 0.0 0.0 0.0 0.0
0.0 0.0 0.0 0.0 0.0 0.0 1.0 1.0
1.0 1.0 1.0 1.0 1.0 1.0 1.0 1.0
1.0 1.0 1.0 1.0 1.0 1.0 1.0 1.0
1.0 1.0 1.0 1.0 1.0 1.0 1.0 0.0
0.0 1.0 1.0 1.0 0.0 0.0 1.0 1.0
1.0 0.0 0.0 0.0 0.0 1.0 1.0 0.0
0.0 0.0 1.0 1.0 0.0 0.0 0.0 1.0
1.0 1.0 1.0 1.0 1.0 0.0 1.0 1.0
1.0 1.0 1.0 1.0 0.0 0.0 1.0 1.0
1.0 0.0 1.0 1.0 1.0 1.0 0.0 0.0
0.0 1.0 1.0 1.0 0.0 0.0 0.0 0.0
0.0 0.0 1.0 1.0 1.0 1.0 1.0 1.0
1.0 1.0 1.0 1.0 1.0 1.0 1.0 1.0
1.0 1.0 1.0 1.0 1.0 1.0 1.0 1.0
0.0 1.0 1.0 0.0 0.0 0.0 0.0 0.0
0.0 0.0 0.0 0.0 0.0 0.0 0.0 0.0
0.0 1.0 1.0 0.0 0.0 0.0 1.0 1.0

bn2.weight f4 [8]
00000000: 4464 af3f 5bf1 2f3f 05ee 8c3f d581 ab3f
00000010: 1ff9 823f 0bab 7a3f cbd5 8f3f bb17 3040
1.3702474 0.68727654 1.1010138 1.3398997 1.0232276 0.9791724 1.123712 2.7514484

bn2.bias f4 [8]
00000000: 2427 8fbd f9e7 67be 9378 8cbe c1ed df3e
00000010: dd02 34bf d74c cc3e 898b 173e 35d8 f83e
-0.06989887 -0.22647084 -0.2743574 0.4373608 -0.7031687 0.39902374 0.14799322 0.48602453

bn2.running_mean f4 [8]
00000000: e958 1ac1 4688 b4c0 1db6 36c1 b4df dfc0
00000010: 6e4e d540 61a9 0bc1 7d23 f7c1 4fea 75c1
-9.646707 -5.641635 -11.419461 -6.9960575 6.665824 -8.728852 -30.892328 -15.369704

bn2.running_var f4 [8]
00000000: 0d90 8f43 83bd 9243 d488 be43 2625 f941
00000010: 173d 5242 1c37 3343 3abb 7043 616f 8943
287.1254 293.48056 381.06897 31.143139 52.559658 179.21527 240.73135 274.87015

conv3.bias f4 [16]
00000000: ff87 1dbe bfd4 ca3e f266 c43e fa34 cabd
00000010: 019b 82be 3536 34bf fc01 113f fbf6 323f
00000020: eb73 843e c952 9abf be01 eb3e f502 22bf
00000030: f468 813f bbd2 0abf 2455 30be 918e 4e3f
-0.1538391 0.39615437 0.3835979 -0.09873386 -0.25508884 -0.70395213 0.5664365 0.6990811
0.25869688 -1.2056514 0.45899767 -0.6328576 1.0110154 -0.542278 -0.17219979 0.8068629

conv3.weight_orig f4 [16, 8, 5, 5]
00000000: 227c 923f 0b88 bd3f fa9d 833f fb4c 6bbc
00000010: 36e3 a0be 4558 093e 18d4 363f 2635 2b3e
00000020: 160e 95bf 357a b3bf 0abd 1bbf 2cbd a0be
00000030: f494 43bf c603 fcbf 1d62 0fc0 ab91 75bf
00000040: 75e1 20bf 9e21 75bf f13b 08c0 a768 0fc0
00000050: 9ccb 36bf ed00 53be 8916 06bf b3e9 e7bf
00000060: 10c3 04c0 805b fb3c 4d87 d6bc 634a 81bd
00000070: 9717 4fbe 6fd4 4cbe 4b92 a3bd 2a98 c2bd
00000080: 0d6a 2abe e3d5 97be 9143 b0be e4a6 c7bc
00000090: 9c51 02be 8d11 57be e1c1 97be 697d 3bbf
000000a0: c466 613d d67e 063d 09fb 4cbd 1ec1 94be
000000b0: 611d babe 061d 583d 324e c63d 1ccf e9bb
000000c0: 6419 ddbd adcf 08be 6813 13bf 3b0d 76bf
000000d0: 6ac6 85bf d7a0 89bf 37b8 87bf cf0f 96be
000000e0: 81c2 21bf 67ca 57bf 7e03 4bbf e033 70bf
000000f0: 15db adbe 3b4b 24bf b3de 51bf a944 3bbf
00000100: d9b7 21bf 3cb3 863e 3fbb 213e 7ec0 063e
00000110: b65f a13d d74f 81bd 5e8a 753f 1f31 2b3f
00000120: 09fe 5d3e 408a 7b3e 0617 063e cfaa e13d
00000130: edeb c83e cf71 843f fc30 413f 6408 bdbe
00000140: daed f3be 2ad4 7ebe 88e9 293f 4583 c13c
00000150: 4ca6 74bf b0ee 5fbf 374d 51be 236b ac3e
00000160: f863 b5bd c723 89bf 217f 92bf db73 9ebe
00000170: 2820 d23d 053e 1dbe 0f76 a3bf fbe2 b7bf
00000180: c90f 43bf 6fe5 eabd 7a53 52bf f0bc ddbf
00000190: 0529 2d3e 873a cb3d 7a75 f3ba 1072 7bbc
000001a0: 8d4d acbc 81f5 58bd 27d8 34be c4ee 98be
000001b0: 14c7 b2be e1dd d1be 5d5b a83e 245a 873e
000001c0: f7c9 c93d 54bf b53c 82ba eabd c757 463f
000001d0: dfdd 3f3f 552a 1e3f ab45 263f e3a3 fb3e
000001e0: d11a f03e 941f 0c3f 885c f53e 8abd ee3e
000001f0: ddfd 723e 9a73 693f 49a5 7e3f 1a0c 823f
00000200: 7353 453f a29f 773e 9322 863e 00fd 543e
00000210: 3ec5 563e 26d8 853d 4b21 b7be 2b9a b53d
00000220: 3eee 15bd ff0e 663b daed 85be 1700 35bf
00000230: cea1 653e 88e8 e43d 85df f03d cdc8 a4bc
00000240: a0d7 d8be cb94 073d 7a73 033e 1142 0a3e
00000250: 42a4 15be 0f8f 0dbf 1ee7 d63d 6a02 bb3e
00000260: be42 4e3f a167 e33e cbf7 0c3e c307 d4be
00000270: 584b 99be 4719 0e3e a6fb 58be eda1 15bf
00000280: 4b05 0cbf 4681 94be 4718 813e ad7b 2cbe
00000290: 4641 e9be 4a38 04bf d22f a3bd 5e5f b63e
000002a0: 2b9e 85bd fe8e 7bbe 4ab6 1ebf 2879 80be
000002b0: c918 3b3e 93af 40be 62ce 17bf 677b 3e3e
000002c0: 6fef 493e f295 003f 5874 083e 1b0f 10bf
000002d0: 9f80 a63b b5c3 543e afc8 013f b29c 8c3d
000002e0: f7fd 48bf 40b9 59be 091e 8c3e 76b8 363f
000002f0: 6620 0d3e 32ba 2fbf d71a b43d dd29 3b3f
00000300: 8750 963f dd2a e93e 714c 19be cbfc 133f
00000310: 7fab 963f b527 ab3f d874 0c3f 694e d1bc
00000320: 3695 673f 5126 573f 54de 6d3f 4bee 823f
00000330: eb7f 883f d3e2 8c3d 14d4 0f3e 0d5b 5f3e
00000340: eb00 c33e 6190 be3e 857d e2be d4ea c0be
00000350: 5634 c6be 1ee7 99be e20c b3be 5be5 cdbf
00000360: 8c65 aebf c36d aebf 0b03 84bf c81d 64bf
00000370: 88ba 16c0 fbb7 0cc0 1050 0ac0 de28 ecbf
00000380: 9b48 9abf b47e b2bf 2f58 bebf b731 d9bf
00000390: 0f88 06c0 83e6 2ac0 ab91 ffbe ad2c e5be
000003a0: f07c 39bf b36a 96bf 885e f2bf ef8e 013e
000003b0: 0f03 c23c fbd4 75be 3386 2cbf e1ca c5bf
000003c0: 7c76 b6be 4d3b cabe 2021 20bf 6e06 91bf
000003d0: 2fb4 f7bf b926 a4bf 29b7 b3bf 292d cfbf
000003e0: 24c3 fdbf a343 2bc0 2375 8e3e 02a1 7c3e
000003f0: 1627 a33e ed13 8f3e 1136 803e 7404 b83e
1.1444132 1.4807142 1.0282586 -0.014361615 -0.31423348 0.13412578 0.7141738 0.16719493
-1.1644924 -1.402167 -0.60835326 -0.31394327 -0.7639916 -1.9688652 -2.2403634 -0.95925397
-0.6284402 -0.9575442 -2.1286585 -2.2407625 -0.71404433 -0.20605822 -0.52378136 -1.8118194
-2.0744057 0.030683279 -0.026187563 -0.06313016 -0.20223843 -0.20002912 -0.079868875 -0.09501679
-0.16642018 -0.2965537 -0.3442655 -0.024371572 -0.12726444 -0.21002789 -0.29640105 -0.73238236
0.055029646 0.032835804 -0.050044093 -0.29053587 -0.3635054 0.052762054 0.09682883 -0.007135285
-0.107958585 -0.13360472 -0.57451487 -0.9611394 -1.0451176 -1.075221 -1.0603093 -0.29308936
-0.63187414 -0.84293216 -0.79302204 -0.93829155 -0.3395621 -0.6417729 -0.8198044 -0.7315164
-0.63171154 0.2630862 0.15794085 0.13159367 0.078795835 -0.06314056 0.95914257 0.6687183
0.21678938 0.24564457 0.1309472 0.11018907 0.39242497 1.0347232 0.7546537 -0.36920464
-0.47642404 -0.24885622 0.66371965 0.023622165 -0.9556625 -0.87473583 -0.20439611 0.3367549
-0.08856958 -1.0714043 -1.1445047 -0.30947766 0.102600396 -0.1535569 -1.2770404 -1.4366144
-0.7619596 -0.11469542 -0.82158625 -1.7323284 0.16910179 0.099232726 -0.001857444 -0.015347019
-0.021033073 -0.052968506 -0.1766058 -0.29869664 -0.3491751 -0.40989593 0.32882205 0.2643596
0.09852975 0.022185959 -0.11461355 0.7747769 0.74947923 0.61783344 0.64950055 0.49148473
0.4689546 0.54735684 0.47922158 0.46628982 0.23729654 0.9119202 0.99470955 1.0159943
0.7708046 0.24181989 0.26198253 0.20799637 0.2097368 0.06535368 -0.35767588 0.08867296
-0.03660416 0.0035104153 -0.2615803 -0.7070326 0.22425005 0.11177164 0.11761383 -0.02011528
-0.4235201 0.033100884 0.1283702 0.13501765 -0.1461344 -0.55296415 0.10493301 0.3652528
0.8057059 0.44415 0.137664 -0.41412172 -0.29940295 0.1387683 -0.21189746 -0.58450204
-0.54695576 -0.29004878 0.25213835 -0.16844054 -0.45557612 -0.5164839 -0.079681054 0.35619634
-0.06524309 -0.24566266 -0.619969 -0.25092435 0.18271174 -0.18816976 -0.5929929 0.18601762
0.19720243 0.502288 0.13325632 -0.5627305 0.005081251 0.20777781 0.50696844 0.06865825
-0.7851252 -0.21262074 0.27366665 0.71375215 0.1378189 -0.68643486 0.08794182 0.73110753
1.1743325 0.45540515 -0.14970566 0.57807606 1.1771086 1.3371493 0.5486579 -0.025550084
0.9046205 0.8404284 0.9291737 1.0228971 1.0664037 0.06879201 0.14045745 0.21812077
0.38086638 0.37219527 -0.4423639 -0.3767916 -0.38711804 -0.3005914 -0.34970766 -1.6085619
-1.362474 -1.3627247 -1.0313429 -0.8910794 -2.355135 -2.1987293 -2.1611366 -1.8449972
-1.2053407 -1.3944917 -1.4870661 -1.6968297 -2.1020544 -2.6703193 -0.49915823 -0.44760647
-0.72456264 -1.1751312 -1.8935099 0.12652181 0.0236831 -0.24007027 -0.6739227 -1.5452539
-0.3563727 -0.39498368 -0.62550545 -1.1330087 -1.9351863 -1.2824317 -1.4040271 -1.6185657
-1.9825177 -2.6760032 0.27823743 0.24670795 0.31865758 0.2794489 0.2504125 0.35940897

conv3.weight_mask f4 [16, 8, 5, 5]
00000000: 0000 803f 0000 803f 0000 803f 0000 0000
00000010: 0000 0000 0000 0000 0000 803f 0000 0000
00000020: 0000 803f 0000 803f 0000 803f 0000 0000
00000030: 0000 803f 0000 803f 0000 803f 0000 803f
00000040: 0000 803f 0000 803f 0000 803f 0000 803f
00000050: 0000 803f 0000 0000 0000 803f 0000 803f
00000060: 0000 803f 0000 0000 0000 0000 0000 0000
00000070: 0000 0000 0000 0000 0000 0000 0000 0000
00000080: 0000 0000 0000 0000 0000 0000 0000 0000
00000090: 0000 0000 0000 0000 0000 0000 0000 803f
000000a0: 0000 0000 0000 0000 0000 0000 0000 0000
000000b0: 0000 0000 0000 0000 0000 0000 0000 0000
000000c0: 0000 0000 0000 0000 0000 803f 0000 803f
000000d0: 0000 803f 0000 803f 0000 803f 0000 803f
000000e0: 0000 803f 0000 803f 0000 803f 0000 803f
000000f0: 0000 0000 0000 803f 0000 803f 0000 803f
00000100: 0000 803f 0000 0000 0000 0000 0000 0000
00000110: 0000 0000 0000 0000 0000 803f 0000 803f
00000120: 0000 0000 0000 0000 0000 0000 0000 0000
00000130: 0000 0000 0000 803f 0000 803f 0000 803f
00000140: 0000 803f 0000 0000 0000 803f 0000 0000
00000150: 0000 803f 0000 803f 0000 803f 0000 0000
00000160: 0000 0000 0000 803f 0000 803f 0000 803f
00000170: 0000 0000 0000 803f 0000 803f 0000 803f
00000180: 0000 803f 0000 803f 0000 803f 0000 803f
00000190: 0000 0000 0000 0000 0000 0000 0000 0000
000001a0: 0000 0000 0000 0000 0000 0000 0000 0000
000001b0: 0000 0000 0000 803f 0000 0000 0000 0000
000001c0: 0000 0000 0000 0000 0000 0000 0000 803f
000001d0: 0000 803f 0000 803f 0000 803f 0000 803f
000001e0: 0000 803f 0000 803f 0000 803f 0000 803f
000001f0: 0000 803f 0000 803f 0000 803f 0000 803f
00000200: 0000 803f 0000 0000 0000 0000 0000 0000
00000210: 0000 0000 0000 0000 0000 0000 0000 0000
00000220: 0000 0000 0000 0000 0000 0000 0000 803f
00000230: 0000 0000 0000 0000 0000 0000 0000 0000
00000240: 0000 803f 0000 0000 0000 0000 0000 0000
00000250: 0000 0000 0000 803f 0000 0000 0000 0000
00000260: 0000 803f 0000 803f 0000 0000 0000 803f
00000270: 0000 0000 0000 0000 0000 0000 0000 803f
00000280: 0000 803f 0000 0000 0000 0000 0000 0000
00000290: 0000 803f 0000 803f 0000 0000 0000 0000
000002a0: 0000 0000 0000 0000 0000 803f 0000 0000
000002b0: 0000 0000 0000 0000 0000 803f 0000 0000
000002c0: 0000 0000 0000 803f 0000 0000 0000 803f
000002d0: 0000 0000 0000 0000 0000 803f 0000 0000
000002e0: 0000 803f 0000 0000 0000 0000 0000 803f
000002f0: 0000 0000 0000 803f 0000 0000 0000 803f
00000300: 0000 803f 0000 803f 0000 0000 0000 803f
00000310: 0000 803f 0000 803f 0000 803f 0000 0000
00000320: 0000 803f 0000 803f 0000 803f 0000 803f
00000330: 0000 803f 0000 0000 0000 0000 0000 0000
00000340: 0000 0000 0000 0000 0000 803f 0000 803f
00000350: 0000 803f 0000 803f 0000 0000 0000 803f
00000360: 0000 803f 0000 803f 0000 803f 0000 803f
00000370: 0000 803f 0000 803f 0000 803f 0000 803f
00000380: 0000 803f 0000 803f 0000 803f 0000 803f
00000390: 0000 803f 0000 803f 0000 803f 0000 803f
000003a0: 0000 803f 0000 803f 0000 803f 0000 0000
000003b0: 0000 0000 0000 0000 0000 803f 0000 803f
000003c0: 0000 0000 0000 0000 0000 803f 0000 803f
000003d0: 0000 803f 0000 803f 0000 803f 0000 803f
000003e0: 0000 803f 0000 803f 0000 0000 0000 0000
000003f0: 0000 0000 0000 0000 0000 0000 0000 0000
1.0 1.0 1.0 0.0 0.0 0.0 1.0 0.0
1.0 1.0 1.0 0.0 1.0 1.0 1.0 1.0
1.0 1.0 1.0 1.0 1.0 0.0 1.0 1.0
1.0 0.0 0.0 0.0 0.0 0.0 0.0 0.0
0.0 0.0 0.0 0.0 0.0 0.0 0.0 1.0
0.0 0.0 0.0 0.0 0.0 0.0 0.0 0.0
0.0 0.0 1.0 1.0 1.0 1.0 1.0 1.0
1.0 1.0 1.0 1.0 0.0 1.0 1.0 1.0
1.0 0.0 0.0 0.0 0.0 0.0 1.0 1.0
0.0 0.0 0.0 0.0 0.0 1.0 1.0 1.0
1.0 0.0 1.0 0.0 1.0 1.0 1.0 0.0
0.0 1.0 1.0 1.0 0.0 1.0 1.0 1.0
1.0 1.0 1.0 1.0 0.0 0.0 0.0 0.0
0.0 0.0 0.0 0.0 0.0 1.0 0.0 0.0
0.0 0.0 0.0 1.0 1.0 1.0 1.0 1.0
1.0 1.0 1.0 1.0 1.0 1.0 1.0 1.0
1.0 0.0 0.0 0.0 0.0 0.0 0.0 0.0
0.0 0.0 0.0 1.0 0.0 0.0 0.0 0.0
1.0 0.0 0.0 0.0 0.0 1.0 0.0 0.0
1.0 1.0 0.0 1.0 0.0 0.0 0.0 1.0
1.0 0.0 0.0 0.0 1.0 1.0 0.0 0.0
0.0 0.0 1.0 0.0 0.0 0.0 1.0 0.0
0.0 1.0 0.0 1.0 0.0 0.0 1.0 0.0
1.0 0.0 0.0 1.0 0.0 1.0 0.0 1.0
1.0 1.0 0.0 1.0 1.0 1.0 1.0 0.0
1.0 1.0 1.0 1.0 1.0 0.0 0.0 0.0
0.0 0.0 1.0 1.0 1.0 1.0 0.0 1.0
1.0 1.0 1.0 1.0 1.0 1.0 1.0 1.0
1.0 1.0 1.0 1.0 1.0 1.0 1.0 1.0
1.0 1.0 1.0 0.0 0.0 0.0 1.0 1.0
0.0 0.0 1.0 1.0 1.0 1.0 1.0 1.0
1.0 1.0 0.0 0.0 0.0 0.0 0.0 0.0

bn3.weight f4 [16]
00000000: 8186 6a3f 9620 9e3f 7024 823f b1c0 cd3f
00000010: 3d47 913f 5352 803f 0dba 833f 527c 0e3f
00000020: 6596 b73f fef7 733f e84f 743f a02f 7d3f
00000030: f6e7 733f 4a16 743f e259 c03f fa1e 863f
0.91611487 1.2353694 1.016737 1.607443 1.1349865 1.0025123 1.0291153 0.5565845
1.4342772 0.9530028 0.9543443 0.98900795 0.9527582 0.9534651 1.502743 1.0478203

bn3.bias f4 [16]
00000000: 4ef0 9ebe 8465 c5be 4db4 3dbf 4459 80bf
00000010: 6db3 9abe f740 1dbf 8960 9abd 50a0 183e
00000020: 085e 14bf 00b2 c3be c039 d0bf c3cf 67be
00000030: f142 5bbf 3abe 8fbf 75de 91bf 4c10 1abf
-0.31042713 -0.38554013 -0.7410324 -1.0027242 -0.30215016 -0.61427253 -0.07537944 0.14904904
-0.5795598 -0.3822174 -1.6267624 -0.22637849 -0.8564902 -1.1229928 -1.1396013 -0.6018112

bn3.running_mean f4 [16]
00000000: 7ad3 08c1 2edd 4ec1 6fda 6e40 5002 163f
00000010: dd9b a4c0 7343 8ac1 0bc0 cac0 aa06 da40
00000020: 23e7 4bc0 ca18 1740 e963 9b40 4272 4740
00000030: 2716 0241 f795 04bf e887 1cc1 4757 61c0
-8.55163 -12.928999 3.7320821 0.5859728 -5.1440263 -17.282934 -6.3359427 6.8133135
-3.1859825 2.360888 4.855946 3.1163487 8.130408 -0.5179133 -9.78318 -3.520952

bn3.running_var f4 [16]
00000000: 296d ee42 86c7 5843 871f 3943 29be a142
00000010: 8263 9d42 f0ae 7243 395e b642 534d ad42
00000020: e524 ab42 0a1b a642 a0bc d742 a3dc f842
00000030: 0446 ed42 71bb 5d42 5525 0143 d28b 2743
119.2132 216.77939 185.12315 80.87141 78.69435 242.68335 91.18403 86.651024
85.57206 83.05281 107.86841 124.43093 118.63675 55.43305 129.14583 167.54617

conv4.bias f4 [16]
00000000: 93a5 563e 1924 92bd 7d60 febe 2372 9c3d
00000010: 44e2 70be a778 99bf a594 98bf 74e2 cb3d
00000020: 2a9c 5c3e 28ff 58bf 876d 25be b421 0e3f
00000030: c7f3 0c3f 9549 413f 2b8b 723e b519 9abf
0.20961599 -0.07135791 -0.4968299 0.07638957 -0.23523813 -1.1989945 -1.1920363 0.09955302
0.21543947 -0.8476434 -0.16155063 0.55520177 0.55059475 0.755029 0.23685901 -1.2039095

conv4.weight_orig f4 [16, 16, 5, 5]
00000000: d3ed b3be 1974 acbe cf82 44bf 2aaf a8bf
00000010: 1875 d5bf 7326 1cbd dfef 82bd a04b c7be
00000020: 4a6c 4dbf a1c1 99bf 8424 b63e 550c b03e
00000030: b03c 0e3d a9c9 ccbe 8bd4 13bf a7ac 8b3f
00000040: 7ab5 8d3f be22 763f c42a 1c3f 8fe6 5d3e
00000050: 5430 733f 6fe6 813f f41b 5d3f 2568 043f
00000060: 4422 c73e 2ea2 873e 332a d43e 562b d13e
00000070: c715 ba3e 0665 163f 6b14 fd3d 3ad7 773e
00000080: b996 9c3e af39 343e a2ee 723e 85f1 d33d
00000090: 2486 863e c28c 773e 4c37 033e 0b1e 873d
000000a0: a4f6 853e e0ec bf3e 4041 a13e c09d 6e3e
000000b0: 3ef4 fb3c 0453 a83e c975 d53e 4cef b23e
000000c0: 2582 a13e d76f ae3d 0b62 01bf 8c66 37bf
000000d0: 90cc 70bf 97db 92bf b7c1 9fbf 3f57 83bd
000000e0: 02cb a6be 7935 0dbf fe8b 59bf a882 75bf
000000f0: bf63 8c3e 4e7e 0ebe 3595 4fbe 0bc7 22bf
00000100: 6001 28bf 10d4 333f e202 a33e 5818 a8bd
00000110: b74b c5be 9261 cfbe f6e5 933f 151e 8c3f
00000120: 9f5f 783f e026 c03e d551 4e3f 1330 c1be
00000130: d929 18be b4cb d7be 1d1a 6abe 4971 243c
00000140: 2233 dcbe ae30 a4be 28a1 92be db9d d7be
00000150: 2b7b a1be d2d3 cdbe 6eb0 c6be c9cf d0be
00000160: 6f46 01bf 1ea8 f8be 1287 e3be 70b1 12bf
00000170: f171 15bf 0f1f 1ebf 1648 42bf a125 05bf
00000180: 8e6e fcbe 0663 08bf da67 25bf 4cc7 7dbf
00000190: c2ca d73e 48e8 773e 509e d53c 350d 0cbe
000001a0: 2213 22be 50ab f33e d282 a33e 07ec 61bb
000001b0: d16d e3bd e968 64be 78a2 913e 6e0a 203e
000001c0: c125 bfbd 5d45 74be 5d6c 31be ae8b 013f
000001d0: 281a ba3e c9f8 383e c54f 0c3e 77b6 853e
000001e0: 5b82 7d3f 6518 3f3f dc6e 133f 194d 123f
000001f0: 5b15 3a3f 5bf2 efbe 6ad7 c0be 359f 1abf
00000200: f4a8 70bf 5f19 c4bf d99e 92bd 29f9 5c39
00000210: 7930 48be 60e2 84be 2dbf 3fbf be1d 973e
00000220: e57d 9a3e f70a 823d ff11 7ebe d0d8 e3be
00000230: f728 c23e 9e5c c53e 1b38 8d3e 67aa c6bd
00000240: 030c d1be 74e1 cf3e 56ad 2d3f ae34 cf3e
00000250: 0cc9 073e df40 48be d959 763f 177a 693f
00000260: eb51 813e 6bbe 95be 0e8f 66bf 750c 8b3f
00000270: eb40 843f b25b da3e d975 46be 6b58 42bf
00000280: 75dd 3c3f 0e87 593f cdf9 783e 0893 42be
00000290: e0d0 44bf aa4e 883e b04b d53e cc98 353d
000002a0: f1bf 93be 0981 55bf 8f5a 8bbe 1459 b7bc
000002b0: 3825 8fbe 6df5 34bf 77d5 79bf d019 0d3e
000002c0: 341d 7a3d a486 f93b 8f54 e1bd 0fc7 c1be
000002d0: 0fa0 243f 28d5 273f 6b7c 153f bf32 b23e
000002e0: eea6 bb3d 243b 6e3f f53f 783f 5c8c 633f
000002f0: 94f4 333f b820 c83e ae60 8b3f 2d5e 923f
00000300: 66ee 973f aa8e 8c3f f4df 513f 3586 893f
00000310: fd62 973f f61a 9c3f 7c42 9c3f 0eae 883f
00000320: a64d 2d3e 4e55 f03d 1bc5 b3bd e0ad 28be
00000330: a20a 07bf 3c80 483f aae0 373f 1176 a23e
00000340: efc1 1dbe b6e1 04bf e5da 163f 7f53 983e
00000350: d604 f1bd 6c0a 1ebf 75b5 86bf 80ec f13e
00000360: b649 413e cf43 9bbe 7732 64bf 986a b0bf
00000370: c74a 643f d16c fb3e 7430 d3bd 6ff4 1dbf
00000380: f985 93bf 357e 4ebf 04d1 0fbf 620b dbbe
00000390: bf39 3bbe 540a 343d 63bb cdbe 0339 a9be
000003a0: 7efd cdbc e9ef 613e 630d f03e 45f8 a4bd
000003b0: 6c63 b83d b718 603e 3fe6 163f 6376 563f
000003c0: 851e 893e a05a 3a3e 0350 963e d70f 0d3f
000003d0: 7301 2f3f 3b59 0d3f 1695 f83e 2f9d da3e
000003e0: a5a4 f93e fb4f 083f eedb 4dbf 1f0c 40bf
000003f0: 3571 32bf 0679 64bf d097 87bf e79d a73c
-0.35142383 -0.33682325 -0.767621 -1.3178456 -1.6676359 -0.038122606 -0.06393408 -0.38924885
-0.8024336 -1.2012216 0.35574734 0.3438441 0.034725845 -0.39997604 -0.5774619 1.0912064
1.1071007 0.9614676 0.61002755 0.21669982 0.9499562 1.0148448 0.8637078 0.5172141
0.3889333 0.2649092 0.41438445 0.40853375 0.3634474 0.587479 0.1235741 0.24203196
0.30583742 0.1760013 0.23723844 0.103488006 0.26274216 0.24174789 0.12814063 0.06597527
0.26164734 0.3748541 0.31495094 0.23302364 0.030756112 0.32875836 0.41691425 0.34948194
0.31544605 0.085174255 -0.50540227 -0.7164085 -0.9406214 -1.1473264 -1.2480992 -0.06413125
-0.32576758 -0.5515972 -0.84979236 -0.9590249 0.2741985 -0.13915369 -0.20271762 -0.63584965
-0.656271 0.70245457 0.31838137 -0.08207768 -0.38534328 -0.40504128 1.1554554 1.094668
0.97020906 0.3752966 0.80593616 -0.3773199 -0.14859714 -0.421476 -0.22861524 0.010036775
-0.4300776 -0.3206839 -0.28638577 -0.42112622 -0.31539282 -0.4020067 -0.3880648 -0.40783527
-0.504981 -0.48565763 -0.44438988 -0.57302 -0.58376986 -0.6176614 -0.75891244 -0.5201054
-0.49303097 -0.532761 -0.6461159 -0.9913223 0.4214688 0.24209702 0.026076466 -0.13676913
-0.15827611 0.4759164 0.31935745 -0.0034472959 -0.1110493 -0.22305645 0.28444266 0.15628979
-0.09333373 -0.23854585 -0.17326494 0.5060376 0.3634808 0.18063654 0.13702305 0.26115772
0.9902703 0.746466 0.57591033 0.5714889 0.72688836 -0.4686459 -0.37664348 -0.6039918
-0.940078 -1.5320243 -0.07159204 0.00021073654 -0.19549741 -0.2595396 -0.74901086 0.2951488
0.30174175 0.06349748 -0.24811552 -0.44501352 0.3792188 0.38547224 0.27581868 -0.097004704
-0.40829477 0.40601695 0.67842615 0.4046988 0.13260287 -0.19555996 0.96230847 0.9120192
0.2525781 -0.2924684 -0.90062034 1.0863177 1.0332311 0.42648083 -0.19380893 -0.75916165
0.73775417 0.849717 0.24314041 -0.190014 -0.7688122 0.26622516 0.41659307 0.04433517
-0.28857377 -0.8340002 -0.27217528 -0.022381343 -0.27958083 -0.7068699 -0.97591347 0.13779378
0.061063007 0.0076149274 -0.110024564 -0.37847182 0.6430673 0.65559626 0.5839297 0.3480434
0.09162699 0.9305899 0.9697259 0.88886046 0.7029507 0.39087462 1.0888879 1.143499
1.1869628 1.0981038 0.8198235 1.0744082 1.1827084 1.2195728 1.220779 1.0678117
0.16924152 0.117350206 -0.08777829 -0.16472578 -0.527506 0.7832067 0.71827185 0.31730703
-0.15406011 -0.5190691 0.58927757 0.29751202 -0.117685005 -0.6173465 -1.0524126 0.47250748
0.18875775 -0.3032517 -0.89139503 -1.378253 0.891766 0.49106458 -0.10311976 -0.617011
-1.152526 -0.80661327 -0.5617831 -0.42782122 -0.18283747 0.043955162 -0.40182027 -0.3305131
-0.025145289 0.22064175 0.46885213 -0.08055166 0.09003338 0.21884428 0.5894508 0.83774394
0.26781097 0.18198633 0.2935792 0.55102295 0.68361586 0.5521428 0.48551244 0.42698047
0.48758426 0.5324704 -0.8041371 -0.75018495 -0.6970399 -0.8924717 -1.0593204 0.020461036

conv4.weight_mask f4 [16, 16, 5, 5]
00000000: 0000 0000 0000 803f 0000 803f 0000 803f
00000010: 0000 803f 0000 0000 0000 0000 0000 0000
00000020: 0000 803f 0000 803f 0000 0000 0000 0000
00000030: 0000 0000 0000 0000 0000 803f 0000 803f
00000040: 0000 803f 0000 803f 0000 803f 0000 0000
00000050: 0000 803f 0000 803f 0000 803f 0000 803f
00000060: 0000 0000 0000 0000 0000 0000 0000 803f
00000070: 0000 803f 0000 803f 0000 0000 0000 0000
00000080: 0000 0000 0000 0000 0000 0000 0000 0000
00000090: 0000 0000 0000 0000 0000 0000 0000 0000
000000a0: 0000 0000 0000 803f 0000 803f 0000 0000
000000b0: 0000 0000 0000 0000 0000 803f 0000 803f
000000c0: 0000 0000 0000 0000 0000 803f 0000 803f
000000d0: 0000 803f 0000 803f 0000 803f 0000 0000
000000e0: 0000 803f 0000 803f 0000 803f 0000 803f
000000f0: 0000 0000 0000 0000 0000 803f 0000 803f
00000100: 0000 803f 0000 803f 0000 0000 0000 0000
00000110: 0000 0000 0000 0000 0000 803f 0000 803f
00000120: 0000 803f 0000 0000 0000 803f 0000 803f
00000130: 0000 803f 0000 0000 0000 0000 0000 0000
00000140: 0000 803f 0000 803f 0000 803f 0000 0000
00000150: 0000 0000 0000 803f 0000 803f 0000 803f
00000160: 0000 803f 0000 803f 0000 803f 0000 803f
00000170: 0000 803f 0000 803f 0000 803f 0000 803f
00000180: 0000 803f 0000 803f 0000 803f 0000 803f
00000190: 0000 0000 0000 0000 0000 0000 0000 0000
000001a0: 0000 0000 0000 803f 0000 0000 0000 0000
000001b0: 0000 0000 0000 0000 0000 0000 0000 0000
000001c0: 0000 0000 0000 0000 0000 0000 0000 803f
000001d0: 0000 0000 0000 0000 0000 0000 0000 0000
000001e0: 0000 803f 0000 803f 0000 803f 0000 803f
000001f0: 0000 803f 0000 803f 0000 803f 0000 803f
00000200: 0000 803f 0000 803f 0000 0000 0000 0000
00000210: 0000 0000 0000 803f 0000 803f 0000 0000
00000220: 0000 0000 0000 0000 0000 0000 0000 803f
00000230: 0000 0000 0000 0000 0000 0000 0000 0000
00000240: 0000 803f 0000 0000 0000 803f 0000 0000
00000250: 0000 0000 0000 0000 0000 803f 0000 803f
00000260: 0000 0000 0000 0000 0000 803f 0000 803f
00000270: 0000 803f 0000 0000 0000 0000 0000 803f
00000280: 0000 803f 0000 803f 0000 0000 0000 0000
00000290: 0000 803f 0000 0000 0000 0000 0000 0000
000002a0: 0000 0000 0000 803f 0000 0000 0000 0000
000002b0: 0000 0000 0000 803f 0000 803f 0000 0000
000002c0: 0000 0000 0000 0000 0000 0000 0000 0000
000002d0: 0000 803f 0000 803f 0000 803f 0000 0000
000002e0: 0000 0000 0000 803f 0000 803f 0000 803f
000002f0: 0000 803f 0000 0000 0000 803f 0000 803f
00000300: 0000 803f 0000 803f 0000 803f 0000 803f
00000310: 0000 803f 0000 803f 0000 803f 0000 803f
00000320: 0000 0000 0000 0000 0000 0000 0000 803f
00000330: 0000 803f 0000 803f 0000 803f 0000 0000
00000340: 0000 0000 0000 803f 0000 803f 0000 0000
00000350: 0000 0000 0000 803f 0000 803f 0000 803f
00000360: 0000 0000 0000 0000 0000 803f 0000 803f
00000370: 0000 803f 0000 803f 0000 0000 0000 803f
00000380: 0000 803f 0000 803f 0000 803f 0000 0000
00000390: 0000 0000 0000 0000 0000 803f 0000 0000
000003a0: 0000 0000 0000 0000 0000 803f 0000 0000
000003b0: 0000 0000 0000 0000 0000 803f 0000 803f
000003c0: 0000 0000 0000 0000 0000 0000 0000 803f
000003d0: 0000 803f 0000 803f 0000 803f 0000 803f
000003e0: 0000 803f 0000 803f 0000 803f 0000 803f
000003f0: 0000 803f 0000 803f 0000 803f 0000 0000
0.0 1.0 1.0 1.0 1.0 0.0 0.0 0.0
1.0 1.0 0.0 0.0 0.0 0.0 1.0 1.0
1.0 1.0 1.0 0.0 1.0 1.0 1.0 1.0
0.0 0.0 0.0 1.0 1.0 1.0 0.0 0.0
0.0 0.0 0.0 0.0 0.0 0.0 0.0 0.0
0.0 1.0 1.0 0.0 0.0 0.0 1.0 1.0
0.0 0.0 1.0 1.0 1.0 1.0 1.0 0.0
1.0 1.0 1.0 1.0 0.0 0.0 1.0 1.0
1.0 1.0 0.0 0.0 0.0 0.0 1.0 1.0
1.0 0.0 1.0 1.0 1.0 0.0 0.0 0.0
1.0 1.0 1.0 0.0 0.0 1.0 1.0 1.0
1.0 1.0 1.0 1.0 1.0 1.0 1.0 1.0
1.0 1.0 1.0 1.0 0.0 0.0 0.0 0.0
0.0 1.0 0.0 0.0 0.0 0.0 0.0 0.0
0.0 0.0 0.0 1.0 0.0 0.0 0.0 0.0
1.0 1.0 1.0 1.0 1.0 1.0 1.0 1.0
1.0 1.0 0.0 0.0 0.0 1.0 1.0 0.0
0.0 0.0 0.0 1.0 0.0 0.0 0.0 0.0
1.0 0.0 1.0 0.0 0.0 0.0 1.0 1.0
0.0 0.0 1.0 1.0 1.0 0.0 0.0 1.0
1.0 1.0 0.0 0.0 1.0 0.0 0.0 0.0
0.0 1.0 0.0 0.0 0.0 1.0 1.0 0.0
0.0 0.0 0.0 0.0 1.0 1.0 1.0 0.0
0.0 1.0 1.0 1.0 1.0 0.0 1.0 1.0
1.0 1.0 1.0 1.0 1.0 1.0 1.0 1.0
0.0 0.0 0.0 1.0 1.0 1.0 1.0 0.0
0.0 1.0 1.0 0.0 0.0 1.0 1.0 1.0
0.0 0.0 1.0 1.0 1.0 1.0 0.0 1.0
1.0 1.0 1.0 0.0 0.0 0.0 1.0 0.0
0.0 0.0 1.0 0.0 0.0 0.0 1.0 1.0
0.0 0.0 0.0 1.0 1.0 1.0 1.0 1.0
1.0 1.0 1.0 1.0 1.0 1.0 1.0 0.0

bn4.weight f4 [16]
00000000: ef87 7e3f 3ba3 c93f 6ed3 5e3f bfae 473f
00000010: 8176 b83f f2bc 823f 9324 703f e445 a43f
00000020: 0222 953f 8f72 a43f 1e30 e03f c784 a33f
00000030: ede8 ac3f 2998 b23f cd6d 5d3f 5bff c53f
0.9942617 1.5752939 0.87041366 0.78001016 1.4411165 1.0213912 0.9380581 1.2833829
1.1651003 1.284746 1.7514684 1.2774895 1.3508583 1.3952686 0.8649567 1.5468553

bn4.bias f4 [16]
00000000: 267f 7dbf ec35 adbf 74f1 b1be 700e 02bf
00000010: 1831 debd 2b81 ecbe 337f 28bf 810c 4cbf
00000020: 297c 88bf 1199 35bf 65e3 d7be a0db 76bf
00000030: c1dc 8ebf 53ea 77bf 72c0 8cbe f33b 82bf
-0.9902214 -1.3532081 -0.34754527 -0.5080328 -0.10849208 -0.46192297 -0.6581909 -0.7970658
-1.0662891 -0.70936686 -0.42165676 -0.9642887 -1.1161119 -0.96841925 -0.27490574 -1.0174545

bn4.running_mean f4 [16]
00000000: 2cba a740 963a 6fc0 8e0f e0c0 eaac 17c1
00000010: 51be 0440 b6ab 69c1 7fc8 debf 30d3 7fc0
00000020: 8a25 80c0 bb99 eabf 70f1 8d3f 9ec1 cb3f
00000030: 1ec2 e7c0 68f2 e13e 6633 d93e 82c0 01bf
5.241476 -3.7379508 -7.001899 -9.479715 2.074116 -14.604422 -1.7404937 -3.9972649
-4.0045824 -1.8328165 1.1089306 1.5918462 -7.242446 0.44130254 0.42422026 -0.5068437

bn4.running_var f4 [16]
00000000: 6310 7f42 ea8d c242 2e4c 1a43 3b8c 8043
00000010: d3c1 5b43 3462 a843 cda6 2843 93bb e842
00000020: c25d dc42 633e ac42 571c c642 bbbd a842
00000030: 1bb1 f542 0d91 7e42 1b5a 1443 d150 a042
63.766003 97.277176 154.29758 257.09555 219.75713 336.7672 168.65157 116.366356
110.18312 86.12185 99.05535 84.37057 122.84591 63.64165 148.35197 80.157845

fc1.bias f4 [16]
00000000: bbb7 023d b896 ff3a 0f82 96bc acf8 c83c
00000010: de08 753d 8678 373c a96f 0b3d 7595 873d
00000020: ed8a fe3c eeef 653c 362e 883c 3324 873c
00000030: 153a 71be cf8a 843d b086 3a3c e497 ec3c
0.0319135 0.0019499874 -0.018372564 0.024532638 0.05982291 0.011198169 0.034042034 0.066203035
0.031072104 0.0140342545 0.016623598 0.016496753 -0.23557313 0.06471788 0.011384651 0.02888102
