Method 2 Knowledge Distilation-Prunnig/student_model.pth (torch, 57870 bytes, 28 tensors)

conv1.weight f4 [8, 3, 3, 3]
00000000: 19c5 8ebf 5010 51bf 666a 9abe a3f4 8dbe
00000010: cd0b 15be a163 853e faf0 5f3d 8677 653e
00000020: a061 023f 34f5 fabe 423e 3ebe b9bf a43c
00000030: 20a6 7cbc 5b94 0c3f d4ca 343f 5e84 073f
00000040: 3026 853f db2d b13f cd7c 80bf bfe3 25bf
00000050: 2566 07bf 9c84 d1be c901 bcbe bcba 9ebc
00000060: 8350 ec3d 1cf4 c23e 8537 5c3f 1201 2c3f
00000070: 7350 443f 6ee4 493f f986 49be b261 aabe
00000080: 9791 313d 496a 80bf 46a5 93bf 7577 8fbf
00000090: 0cab 403f ac98 563f 2dbe 133f ba46 c23e
000000a0: 52fd 0d3e 73d9 fd3d 0850 0dbe 1f3f a3be
000000b0: b1f2 04bf 2970 fd3e 38a9 ce3e 547d 4bbd
000000c0: f792 6f3e 0c94 5ebe 13c3 7ebe d8cc c8be
000000d0: 5d69 e0be ccd2 4bbf f367 213e 6bd2 0c3f
000000e0: ab72 d73e 60b4 e23e 9027 273f 5ad0 e33e
000000f0: 39ea 33bd a4a5 be3e 219f 033f 8233 593e
00000100: 4ddb 343f d40d 873f d3a6 89be df96 203f
00000110: ce63 533f f4ff 92bf 5229 a7be 04c9 22bb
00000120: 46e2 8abf 3387 97be a1cf c2be c448 4ebf
00000130: cbae c8be 026e 84be 6eb8 82bf 3628 15bf
00000140: 3369 f2be 116b 0bbf c71d c9be ddaa 103e
00000150: 4ec3 fcbe be42 8d3d 9f23 c03e 6861 71be
00000160: ea04 a83d 9841 823f 3e04 90bf 859c 9ebf
00000170: a548 c23d 8164 82bf 256c 72be 4b28 a73f
00000180: 963d f6bf 4d42 90bf 98cd af3e 1b31 d3bd
00000190: 730e 51be 84bd 543e e05d 58be 8c6f 8fbd
000001a0: 2acc 193f d97e 92be 5c27 0d3d 3386 053f
000001b0: 69d5 3b3d a2ff 68bc fc58 073d 6df7 e83e
000001c0: c106 093f db77 0d3f eedf 0c3f c916 543f
000001d0: 67ae 383f e7b0 19bd 5666 823e 7663 23be
000001e0: 5ccd 113c 027f df3d 6cbe b3be 9434 c7be
000001f0: 35a7 53be ec44 cebe 3713 3abf e7ee 65bf
00000200: 35d7 b8bf 2ecf 39bf 6597 2cbf 6212 7ebf
00000210: 4073 68bf 4386 69bf 11e2 b0bf 78e8 48be
00000220: 676e 66be c4e7 b5be 6ffe e6be 987d 13bf
00000230: 7356 a3be 5eed 44be 1c71 50be b378 e4bd
00000240: 950f 2cbf 48af 49bf abd8 5cbf 8651 e8be
00000250: d7f4 3dbf d1d6 08bf 362a 03be 74a6 9cbe
00000260: 115f c9bd 7bb3 1b3f 77c4 a93e e067 883e
00000270: 383c 4a3f 5bf1 4a3f 4a6f 123f 0951 8a3f
00000280: b09e 5a3f a150 853f 2b81 4c3f e3ca 193f
00000290: b51b b03e 89fb 373f 62d1 9e3e d6ff c73e
000002a0: 751e ee3d 6eb2 f3be 9c77 433d 1095 333f
000002b0: babb df3e 5d29 413f 53d3 c9be 91eb bebe
000002c0: e12a 78be f372 93bf b25e a3bf 01d3 8bbf
000002d0: 4b92 453f e99a c93e 84ce 6d3e 9f92 8b3f
000002e0: 50b2 923e 6189 2b3e aad1 463f 39fd 053e
000002f0: 09d7 5fbe b845 04bf 5511 efbe 26a1 27bd
00000300: e1f1 4f3d 9f09 a6bd f258 9b3d 6526 203e
00000310: ab5e dd3e d943 cd3e d370 bfbf bfd3 96bf
00000320: bd4f 96be b149 8cbe b8fa 53be 9d69 023f
00000330: c933 d23e 5071 973f 7a7f a33f 9542 71bf
00000340: 4a3d 33bf f5a4 0a3e 7cbe b6be c10e 6b3c
00000350: 109c a53e 1b70 a83e f700 153f 5910 433f
-1.11539 -0.81665516 -0.301593 -0.27725706 -0.14555283 0.26052573 0.054673173 0.22408876
0.50930214 -0.490152 -0.18578437 0.020110952 -0.015420467 0.5491387 0.7062199 0.5293635
1.0402279 1.3842119 -1.0038086 -0.6480064 -0.52890235 -0.40921485 -0.36720112 -0.019376151
0.11538794 0.38076866 0.86022216 0.67189133 0.76685256 0.7886418 -0.19680394 -0.3327766
0.043351736 -1.0032436 -1.1534812 -1.120833 0.75260997 0.8382671 0.5771206 0.37944585
0.13866165 0.12394991 -0.13800061 -0.31884095 -0.5193282 0.49499634 0.4036348 -0.04968007
0.23395906 -0.21736163 -0.24879102 -0.39218783 -0.43830386 -0.79618526 0.1576231 0.5500857
0.42079672 0.4427824 0.6529474 0.44494897 -0.043924544 0.3723575 0.51414686 0.21211055
0.70647126 1.0551095 -0.2688509 0.6273021 0.82574165 -1.1484361 -0.32648712 -0.0024839053
-1.0850303 -0.29595336 -0.38049033 -0.8057978 -0.39195856 -0.2586518 -1.0212533 -0.5826448
-0.47345886 -0.54460245 -0.3928053 0.14127679 -0.49367756 0.06897496 0.37527177 -0.23572314
0.08204062 1.0176268 -1.1251295 -1.2391516 0.09486512 -1.0186921 -0.23674066 1.3059171
-1.9237545 -1.1270233 0.34336543 -0.103121005 -0.20415668 0.2077542 -0.2112956 -0.07003698
0.60077155 -0.28612402 0.034461364 0.52157897 0.04585782 -0.014221104 0.033043846 0.4550127
0.5352593 0.5526101 0.5502919 0.8284727 0.72141117 -0.037522223 0.254687 -0.1595591
0.008899059 0.10912897 -0.35106218 -0.389073 -0.20669253 -0.40286958 -0.7268557 -0.8981766
-1.4440676 -0.72581756 -0.6741851 -0.992468 -0.9080086 -0.9122049 -1.381899 -0.1961993
-0.22503053 -0.35528386 -0.45115992 -0.57613516 -0.31901893 -0.19231173 -0.20355648 -0.11155834
-0.67211276 -0.7878308 -0.8626811 -0.45374697 -0.7420172 -0.53452784 -0.12809071 -0.30595744
-0.098325856 0.6082074 0.33157703 0.2664175 0.78998137 0.7927453 0.57201064 1.080598
0.8539839 1.0415231 0.79884595 0.60075206 0.3439614 0.7186819 0.3101912 0.39062375
0.11626903 -0.4759707 0.04772149 0.70149326 0.43697912 0.7545374 -0.3941904 -0.37289098
-0.24235107 -1.1519455 -1.2763274 -1.0923768 0.7717635 0.39376 0.2322331 1.090412
0.28651667 0.16751625 0.7766367 0.13084878 -0.21859373 -0.5166888 -0.4669291 -0.040925168
0.050767783 -0.08107304 0.07585324 0.15639646 0.43236288 0.40090826 -1.4956306 -1.178337
-0.2935771 -0.27399972 -0.2070111 0.50942403 0.41055134 1.1831455 1.2773278 -0.9424222
-0.70015395 0.13539489 -0.35692203 0.014346779 0.3234563 0.3289803 0.582046 0.7619682

conv1.bias f4 [8]
00000000: 3403 6b3e 660f 87bf 8b39 69bf 0fcb 173f
00000010: 8090 12bf 8704 55bd 41b8 84be be4e 33bf
0.2295044 -1.0551574 -0.9110343 0.5929422 -0.5725174 -0.05200627 -0.25921825 -0.70042026

bn1.weight f4 [8]
00000000: b11a f83e 3274 8f3f 41c6 d53f ada9 a23f
00000010: f0b4 663f 711c e23e a2b9 043f 8c00 1c40
0.48457864 1.1207335 1.6701127 1.2708031 0.9011984 0.44162324 0.51845753 2.4375334

bn1.bias f4 [8]
00000000: ddc4 223e a071 dc3d b23f 393f fddf 85bf
00000010: 31c6 86bd 0ccf 2c3d 0464 b13e 18b4 943f
0.1589541 0.1076386 0.72362816 -1.0458981 -0.06580771 0.042189643 0.34646618 1.161746

bn1.running_mean f4 [8]
00000000: 428a 303e 694b b4bf 260d c3be cc05 24bf
00000010: 7e73 ccbf fe0d 47bf 26dc 843f 71f0 2dbf
0.17240241 -1.4085513 -0.3809597 -0.64071345 -1.5972745 -0.77755725 1.0379684 -0.6794501

bn1.running_var f4 [8]
00000000: f8aa fd3d 08a7 283e 1b85 e13e 8ac3 7e3f
00000010: 8631 c13f d51d 0f3f 7e18 823f b924 a63d
0.12386125 0.16469967 0.44046864 0.9951712 1.5093238 0.55904895 1.0163724 0.08112473

conv2.weight f4 [8, 8, 5, 5]
00000000: 9f05 d4bd d22d 1cbe 7d78 68be b2a9 f4be
00000010: 77f3 30bf d2b2 50be 98e5 b1bc 9f6e f1bd
00000020: bca7 8bbe 4a90 06bf c3bd 8fbd 353a 563d
00000030: e4bb e1bc 973f 40be 11f0 bdbe a84d 90be
00000040: df08 22be 426d bbbe f7fc 01bf a7c4 14bf
00000050: c412 09bf 6349 c4be bd9c d2be 72f2 2abf
00000060: 9bd5 5fbf 8d32 a2be 34a0 e5be 0e57 fcbe
00000070: 36f0 87be c1ee d23c 1a15 873e faa5 d43d
00000080: 9675 06bd 867f 073e c1e4 d33e 7902 8a3d
00000090: 9a9d 4f3e b166 7f3e bcc9 1c3f 303d 3d3f
000000a0: d21f 403e eaae a03e 8003 6d3e 0adb 163f
000000b0: 730e 583f 8d72 c23e 8d5b 613e 116a 9ebb
000000c0: 6792 663e c984 bf3e af19 b93e ef5c c23e
000000d0: 06fc 313e f356 39be 9235 fbbe 9850 f83e
000000e0: faaa c73e 5fdb 813e 0aa2 9e3b 6723 85be
000000f0: 8b71 d93e 5d6b d23e 5b0f 9b3e 4843 76bb
00000100: 6e02 7fbe c095 e73e 9ee6 a93e 1983 a93d
00000110: 8801 c9be 3bdc 0fbf 1aeb cd3e ece7 6e3e
00000120: 4573 22be b5dd 1fbf ca7d 67bf 1218 a3be
00000130: e881 80bf 23a3 bdbf 1c24 e6bf 30df fcbf
00000140: c411 d7be 84d0 5cbf e83c a3bf 29bd cabf
00000150: 2809 f2bf 767c 1cbf d494 7ebf e803 bebf
00000160: e3cb ddbf 9b35 f7bf f867 0bbe 49fe e6be
00000170: 3b48 75bf 6dba 8dbf 1cac 90bf f43b 6b3e
00000180: fa7b b43d 403c 69be ca55 cabe 612f 85be
00000190: b047 62bf e5aa a6bf 2c54 a0bf 1dfc 7dbf
000001a0: 3bca 50bf 3985 a2be 101d 11bf fcfa 0dbf
000001b0: 6d21 7fbe 2206 82be c80c 9abe 4b62 01bf
000001c0: 79e1 06bf 9cd6 83be aedc babe c2ff 05be
000001d0: 1cda 93be 20e6 aebe d69e 53be 27c4 66be
000001e0: 6596 c9bd c84a a3be a7cc a1be dfaf 0bbc
000001f0: 039b d73d 6bf8 9cbe aa89 e7be 4cf2 39bf
00000200: 7846 87bf 9dc0 a8bf f894 2cbf 47b7 35bf
00000210: 61f5 62bf 1615 a5bf 9b5b c2bf a663 56bf
00000220: 7bee 80bf f2ff 9fbf 08eb bdbf ca92 cfbf
00000230: a255 44bf 57f5 53bf 45a9 70bf b1b0 98bf
00000240: dc7b a4bf a476 d0be 6ee4 d1be 7ec6 13bf
00000250: 2cbb 37bf a405 56bf e7e9 31bf 0675 24be
00000260: 668d 9c3e e08e 2e3f b5f5 2f3f cf32 2dbf
00000270: e9c9 7cbe 6569 603e ce79 e73e d3d9 f93e
00000280: cd27 47bf 6cbd bcbe c493 883d 340c 8d3e
00000290: 9b77 bd3e ceb4 71bf 0d9f d5be e9df c73c
000002a0: 2be1 473e 8e33 973e fc08 8abf faca 28bf
000002b0: f5f7 cdbd a47a 5b3e 82fd 6f3e 704d f13e
000002c0: fd76 fabe 8a99 babf 7dae 00c0 b859 00c0
000002d0: 1d57 f23e 9e11 783d 3323 36bf abc0 a4bf
000002e0: 0a67 b6bf 8ffa ac3f d13b 993f d143 413f
000002f0: b4f4 6d3e e338 24be a76d 643f 3099 813f
00000300: c619 023f 2fea 61be e118 33bf c5a1 783f
00000310: b0ca a03f 8f11 903f 55fd be3e 5762 b9be
00000320: 824b 87be c415 f5be 8b50 d8be e2c5 d2be
00000330: 16e9 c5be e15a 133e 2fc5 253d 9252 1c3e
00000340: 1279 4b3e 15fe 9e3d 936f 563f 1a2a 323f
00000350: 278f 583f 4e79 6b3f ec5a 3d3f e025 913f
00000360: 209f 7c3f 40d3 a53f 4fcf a93f 4c44 923f
00000370: e0b8 9c3f 5d20 7d3f 1cf4 983f c8ef 7e3f
00000380: 66d7 453f 69e1 063f 04e1 203f fb84 3b3f
00000390: eaa0 353f 0eef 043f cb07 413f 483a f33e
000003a0: 78e8 b53e e60f 063f 241c 823f 39cb fa3d
000003b0: 554a a3be 39b9 c5be dd2c 2fbe 8310 a73e
000003c0: 7306 c5bc 645b 853c a2df 94bd c086 103e
000003d0: 5c30 bc3e 692c b9be 0e22 92be a4b1 4ebe
000003e0: 29e7 933c b5d3 063f ab1d 553f 3926 82bc
000003f0: d235 3a3d e733 7b3e b370 e23e 53e5 463f
-0.10352635 -0.15251854 -0.22702213 -0.47785717 -0.691215 -0.20380715 -0.021715924 -0.117886774
-0.2727641 -0.5256392 -0.07018616 0.052301604 -0.027555414 -0.18774258 -0.3709722 -0.28184247
-0.15823697 -0.36606795 -0.5077662 -0.5811257 -0.5354426 -0.3833724 -0.41135207 -0.6677619
-0.8743531 -0.31679192 -0.44848788 -0.49285167 -0.26550454 0.025748612 0.26383287 0.1038322
-0.032826982 0.1323224 0.41385463 0.06738753 0.20274964 0.24941517 0.6124532 0.7392149
0.18762138 0.3138345 0.23145866 0.5892798 0.8439705 0.3797802 0.2200758 -0.0048344214
0.22516786 0.37405995 0.36152408 0.37961528 0.17381296 -0.18099575 -0.49064308 0.48498988
0.38997632 0.2536268 0.004841094 -0.26003572 0.4246944 0.41097537 0.30285153 -0.0037576724
-0.2490327 0.45231438 0.3318376 0.08276958 -0.3925898 -0.5619542 0.4021843 0.23330659
-0.15864284 -0.62447673 -0.90426314 -0.31854302 -1.0039644 -1.481541 -1.797977 -1.9755611
-0.42005742 -0.8625567 -1.2752962 -1.5838977 -1.8909044 -0.6112741 -0.99445844 -1.4844942
-1.7327846 -1.9313234 -0.1361388 -0.4511588 -0.9581334 -1.1072518 -1.1302524 0.22972089
0.08812709 -0.2277689 -0.39518577 -0.2601271 -0.88390636 -1.3020903 -1.2525687 -0.9921282
-0.8155858 -0.31742266 -0.5668497 -0.55461097 -0.24915095 -0.25395304 -0.30087876 -0.5054061
-0.52687794 -0.2574967 -0.3649649 -0.13085845 -0.28877342 -0.34159946 -0.2066606 -0.22535764
-0.098431386 -0.3189299 -0.3160145 -0.008525818 0.10527613 -0.30658278 -0.45222217 -0.7263534
-1.056838 -1.3183781 -0.6741481 -0.70982784 -0.8865567 -1.289706 -1.5184206 -0.837458
-1.0072778 -1.2499983 -1.4837351 -1.6216671 -0.76693165 -0.82796234 -0.94008285 -1.1928922
-1.2850299 -0.40715516 -0.4099459 -0.5772475 -0.71769977 -0.83602357 -0.6949753 -0.16060266
0.30576628 0.6818676 0.68734294 -0.6765565 -0.24686398 0.21915205 0.45210117 0.48799
-0.77795106 -0.36863267 0.06668809 0.27548373 0.37005314 -0.9441651 -0.4172291 0.02439876
0.19519489 0.2953152 -1.0783992 -0.6593472 -0.1005706 0.21433502 0.2343655 0.47129393
-0.48918906 -1.4578106 -2.01065 -2.005476 0.47332087 0.060563676 -0.7114746 -1.2871298
-1.4250195 1.3513964 1.197138 0.75494105 0.23237878 -0.16037326 0.89229816 1.0124874
0.5082058 -0.2206199 -0.6995984 0.9712184 1.2561855 1.1255358 0.37302652 -0.3620784
-0.26424795 -0.47868168 -0.4224895 -0.41166598 -0.38654393 0.14390136 0.040471252 0.15265873
0.19870403 0.07763306 0.83764 0.6959549 0.84593433 0.9198197 0.7396686 1.1339684
0.98680305 1.2955093 1.326639 1.1427093 1.2243919 0.9887751 1.1949496 0.9958463
0.77281797 0.526877 0.62843347 0.7324979 0.7094866 0.5192727 0.75402516 0.47505403
0.35528922 0.5236801 1.0164838 0.12245793 -0.31892648 -0.38617876 -0.17106958 0.32629785
-0.024050927 0.01627893 -0.07269217 0.14113903 0.36755645 -0.36166695 -0.28541607 -0.20184952
0.018054562 0.5266679 0.83248395 -0.015887367 0.045461483 0.24531518 0.44226608 0.7769367

conv2.bias f4 [8]
00000000: b3f4 883f 29fd 4fbf fd00 df3e 6778 24bf
00000010: 1664 423e 6a85 92bf 5326 cdbe 3217 83bf
1.0699676 -0.81245667 0.43555441 -0.6424622 0.18983492 -1.1446965 -0.40068302 -1.0241454

bn2.weight f4 [8]
00000000: 0688 b23f 1fa5 393f ab5e 873f 4767 a03f
00000010: e503 6d3f 7f56 813f 0fca 8c3f 7797 3540
1.3947761 0.7251758 1.0575765 1.2531518 0.9258407 1.0104522 1.0999163 2.8373697

bn2.bias f4 [8]
00000000: 6d1f ecbc cc2d 89be 8bb4 a3be ec01 ac3e
00000010: b528 28bf f0cb d23e 9fbc 053e 4f79 013f
-0.028823579 -0.26792753 -0.3197368 0.33595216 -0.65687114 0.41171217 0.13060234 0.5057573

bn2.running_mean f4 [8]
00000000: fcbb 1ec1 f5b2 1ac1 ae1c 30c1 e84d 12c1
00000010: 336e e840 23a9 1dc1 8838 f8c1 b08f 8fc1
-9.920895 -9.668691 -11.007002 -9.14402 7.263452 -9.853793 -31.027603 -17.94516

bn2.running_var f4 [8]
00000000: 5499 af43 e1a5 a543 1164 ea43 ddea 1142
00000010: a469 7842 f64a 2543 ce8b 8d43 8edc ba43
351.19788 331.29593 468.78177 36.47936 62.103165 165.29282 283.09222 373.72308

conv3.weight f4 [16, 8, 5, 5]
00000000: f138 893f 7128 b43f f473 7d3f fb4c 6bbc
00000010: 36e3 a0be 4558 093e a9ea 153f 2635 2b3e
00000020: dfba 9bbf 0bc6 babf eb0f 1ebf 2cbd a0be
00000030: 5d05 30bf 561b f0bf 8a0b 0bc0 8e26 6bbf
00000040: 80b2 09bf a1d1 52bf cd7b febf 7925 09c0
00000050: cafd 3fbf ed00 53be 12b8 ffbe c3d0 e5bf
00000060: edba 05c0 805b fb3c 4d87 d6bc 634a 81bd
00000070: 9717 4fbe 6fd4 4cbe 4b92 a3bd 2a98 c2bd
00000080: 0d6a 2abe e3d5 97be 9143 b0be e4a6 c7bc
00000090: 9c51 02be 8d11 57be e1c1 97be c659 08bf
000000a0: c466 613d d67e 063d 09fb 4cbd 1ec1 94be
000000b0: 611d babe 061d 583d 324e c63d 1ccf e9bb
000000c0: 6419 ddbd adcf 08be c6cd 37bf 4f6f 88bf
000000d0: 609c 91bf 8800 94bf 732d 8abf 6743 ccbe
000000e0: d2cb 31bf 5c02 66bf 83b0 57bf 1d85 70bf
000000f0: 15db adbe 1640 24bf ccc0 52bf 6f6d 3bbf
00000100: 74af 1abf 3cb3 863e 3fbb 213e 7ec0 063e
00000110: b65f a13d d74f 81bd 8cb0 2c3f 7c88 cf3e
00000120: 09fe 5d3e 408a 7b3e 0617 063e cfaa e13d
00000130: edeb c83e d5d6 573f 3c86 113f b05c f8be
00000140: 0883 38bf 2ad4 7ebe c3c9 e93e 4583 c13c
00000150: 7b30 82bf 8154 89bf bb1d cdbe 236b ac3e
00000160: f863 b5bd 2dc1 8cbf 4ba5 b9bf ac82 20bf
00000170: 2820 d23d dec5 d9be 0d98 b8bf 815f dbbf
00000180: 5be7 86bf bd76 d3be 204d 88bf 7020 f3bf
00000190: 0529 2d3e 873a cb3d 7a75 f3ba 1072 7bbc
000001a0: 8d4d acbc 81f5 58bd 27d8 34be c4ee 98be
000001b0: 14c7 b2be 678b 09bf 5d5b a83e 245a 873e
000001c0: f7c9 c93d 54bf b53c 82ba eabd 74e1 4d3f
000001d0: 5b54 3a3f 53d9 0f3f 386e 163f 0109 ed3e
000001e0: 6612 103f 283d 1f3f 17a1 0f3f 928f 133f
000001f0: 4ff7 cf3e 2c14 5b3f d0f0 6b3f 97ed 6c3f
00000200: 19eb 303f a29f 773e 9322 863e 00fd 543e
00000210: 3ec5 563e 26d8 853d 4b21 b7be 2b9a b53d
00000220: 3eee 15bd ff0e 663b daed 85be 3feb 21bf
00000230: cea1 653e 88e8 e43d 85df f03d cdc8 a4bc
00000240: 604b dabe cb94 073d 7a73 033e 1142 0a3e
00000250: 42a4 15be bc52 06bf 1ee7 d63d 6a02 bb3e
00000260: cfe9 3e3f ac2c e83e cbf7 0c3e ef03 09bf
00000270: 584b 99be 4719 0e3e a6fb 58be 9be7 03bf
00000280: 01ae 2ebf 4681 94be 4718 813e ad7b 2cbe
00000290: 2e68 cebe ce72 1bbf d22f a3bd 5e5f b63e
000002a0: 2b9e 85bd fe8e 7bbe ee23 2abf 2879 80be
000002b0: c918 3b3e 93af 40be d997 f7be 677b 3e3e
000002c0: 6fef 493e 1d39 083f 5874 083e aed2 d2be
000002d0: 9f80 a63b b5c3 543e 94aa ef3e b29c 8c3d
000002e0: 93bb 2ebf 40b9 59be 091e 8c3e afd2 2c3f
000002f0: 6620 0d3e 2380 12bf d71a b43d 519e 353f
00000300: 832f 913f 15e2 fd3e 714c 19be c381 143f
00000310: 9589 8f3f 1b33 a53f 1429 183f 694e d1bc
00000320: fe71 3f3f 0e9b 333f f6df 4f3f 7a07 6e3f
00000330: 9efd 7f3f d3e2 8c3d 14d4 0f3e 0d5b 5f3e
00000340: eb00 c33e 6190 be3e 39a6 1fbf cf7f 0abf
00000350: 1b83 08bf 0fa5 d9be e20c b3be c038 d7bf
00000360: 7403 b2bf c603 aebf 1757 81bf 0683 5ebf
00000370: dbc7 1ec0 714d 11c0 0eca 0bc0 fdc3 e9bf
00000380: 0cac 95bf 85eb bcbf 9362 cabf 99db e5bf
00000390: faf4 0cc0 2912 31c0 3bc2 17bf 88c2 07bf
000003a0: 3501 49bf 724a 9cbf 9647 f7bf ef8e 013e
000003b0: 0f03 c23c fbd4 75be 1ab5 36bf 2e58 c8bf
000003c0: 7c76 b6be 4d3b cabe 55fc 2ebf 6b9a 95bf
000003d0: 704d f8bf a40d b6bf 3993 c0bf cf4c d8bf
000003e0: 54b9 01c0 87bb 2bc0 2375 8e3e 02a1 7c3e
000003f0: 1627 a33e ed13 8f3e 1136 803e 7404 b83e
1.0720502 1.4074842 0.99005055 -0.014361615 -0.31423348 0.13412578 0.5856119 0.16719493
-1.2166404 -1.4591688 -0.6174304 -0.31394327 -0.68758184 -1.8758342 -2.1725793 -0.91855705
-0.53787994 -0.8235112 -1.9881531 -2.1429121 -0.74996626 -0.20605822 -0.49945122 -1.7954334
-2.089534 0.030683279 -0.026187563 -0.06313016 -0.20223843 -0.20002912 -0.079868875 -0.09501679
-0.16642018 -0.2965537 -0.3442655 -0.024371572 -0.12726444 -0.21002789 -0.29640105 -0.53261983
0.055029646 0.032835804 -0.050044093 -0.29053587 -0.3635054 0.052762054 0.09682883 -0.007135285
-0.107958585 -0.13360472 -0.7179836 -1.0658969 -1.1375847 -1.1562662 -1.079512 -0.39895174
-0.6945163 -0.8984735 -0.8425371 -0.93953115 -0.3395621 -0.6416029 -0.82325435 -0.7321386
-0.6042397 0.2630862 0.15794085 0.13159367 0.078795835 -0.06314056 0.6745689 0.40533817
0.21678938 0.24564457 0.1309472 0.11018907 0.39242497 0.8431218 0.5684545 -0.48508215
-0.7207494 -0.24885622 0.45661744 0.023622165 -1.0171045 -1.0728914 -0.40061745 0.3367549
-0.08856958 -1.0996453 -1.4503568 -0.6269939 0.102600396 -0.42533773 -1.4421402 -1.713852
-1.0539354 -0.41301528 -1.0648537 -1.8994274 0.16910179 0.099232726 -0.001857444 -0.015347019
-0.021033073 -0.052968506 -0.1766058 -0.29869664 -0.3491751 -0.53728336 0.32882205 0.2643596
0.09852975 0.022185959 -0.11461355 0.8042214 0.72784966 0.56190985 0.5876193 0.46295932
0.56278074 0.6220269 0.5610518 0.57640946 0.4061837 0.85577655 0.92164326 0.92550033
0.6910873 0.24181989 0.26198253 0.20799637 0.2097368 0.06535368 -0.35767588 0.08867296
-0.03660416 0.0035104153 -0.2615803 -0.6324958 0.22425005 0.11177164 0.11761383 -0.02011528
-0.42635632 0.033100884 0.1283702 0.13501765 -0.1461344 -0.5246999 0.10493301 0.3652528
0.74575514 0.45346582 0.137664 -0.5352163 -0.29940295 0.1387683 -0.21189746 -0.51525277
-0.6823426 -0.29004878 0.25213835 -0.16844054 -0.40313858 -0.60722053 -0.079681054 0.35619634
-0.06524309 -0.24566266 -0.66461074 -0.25092435 0.18271174 -0.18816976 -0.48358038 0.18601762
0.19720243 0.5321215 0.13325632 -0.4117636 0.005081251 0.20777781 0.46809828 0.06865825
-0.68254966 -0.21262074 0.27366665 0.6750898 0.1378189 -0.5722677 0.08794182 0.70944697
1.1342624 0.4958655 -0.14970566 0.580105 1.1213862 1.2906221 0.5943768 -0.025550084
0.74783313 0.7015847 0.8120111 0.9298016 0.99996364 0.06879201 0.14045745 0.21812077
0.38086638 0.37219527 -0.6236301 -0.5410127 -0.5332505 -0.42508742 -0.34970766 -1.6814194
-1.3907304 -1.3594902 -1.0104703 -0.86918676 -2.4809482 -2.2703516 -2.1842074 -1.8262936
-1.169313 -1.4759375 -1.5811332 -1.7957641 -2.2024522 -2.7667334 -0.5928075 -0.53031206
-0.78517467 -1.2210219 -1.9318721 0.12652181 0.0236831 -0.24007027 -0.7137009 -1.565191
-0.3563727 -0.39498368 -0.6835378 -1.168775 -1.9398632 -1.4222913 -1.5044929 -1.689844
-2.0269365 -2.6833208 0.27823743 0.24670795 0.31865758 0.2794489 0.2504125 0.35940897

conv3.bias f4 [16]
00000000: cccd c7bd 3005 d23e 8015 c53e be42 27be
00000010: b360 85be 7784 3ebf 9d9b 163f d5e2 363f
00000020: 4718 453e ed24 a1bf 60d3 df3e bec6 36bf
00000030: c0b7 843f db52 0ebf 8eae 70be d6c4 4a3f
-0.097560495 0.41019583 0.38492966 -0.16334054 -0.26050338 -0.74420875 0.588312 0.7143987
0.19247542 -1.2589394 0.43715954 -0.71397007 1.0368576 -0.5559518 -0.23504087 0.792066

bn3.weight f4 [16]
00000000: c875 6e3f 3da5 a13f 135e 753f 15b3 ce3f
00000010: f7ab 933f 19cc 863f d97c 813f fdcd 1f3f
00000020: d603 ba3f 7094 733f 759b 5f3f 6d14 843f
00000030: 8cd5 663f f0bd 6d3f f6ab bd3f 6f5f 883f
0.9314847 1.2628552 0.9584667 1.6148401 1.1536855 1.0531036 1.0116225 0.6242369
1.4532421 0.9514837 0.87346584 1.0318733 0.90169597 0.92867947 1.4818103 1.0654124

bn3.bias f4 [16]
00000000: a599 67be ab79 adbe b578 50bf d5c8 7abf
00000010: 988e 83be 5322 14bf 8f3e dfbd 9231 953d
00000020: 51d3 14bf c040 d8be 0b7d cbbf 92e1 a7be
00000030: 2b26 5cbf 9b78 92bf 2c40 96bf c041 29bf
-0.22617204 -0.33881888 -0.81434184 -0.97962695 -0.25694728 -0.57864875 -0.10900604 0.072848454
-0.58134943 -0.422369 -1.5897535 -0.32789284 -0.8599574 -1.1443056 -1.1738334 -0.6611595

bn3.running_mean f4 [16]
00000000: 6e2f 14c1 ce46 51c1 bf26 cc40 1a72 74bf
00000010: 44c5 a9c0 4d9b 8cc1 75a9 cec0 5157 4641
00000020: 56ec 46c0 fe54 ca40 876c 5c40 c0ac e440
00000030: b5e0 9440 b807 943f 6092 3ec1 3d65 42c0
-9.2615795 -13.079786 6.3797297 -0.95486605 -5.3053303 -17.57583 -6.4581857 12.3963175
-3.1081748 6.322875 3.444124 7.1460876 4.65243 1.1564856 -11.910736 -3.037429

bn3.running_var f4 [16]
00000000: a75d f642 3b64 7743 1130 6d43 c52c aa42
00000010: f212 b242 b1ae 8043 5026 dc42 83d3 0b43
00000020: 98b7 9a42 b7d6 c642 70a9 de42 6d1b 0643
00000030: fb93 bd42 3cdb 3f42 fad3 2843 1c6b 3143
123.182915 247.39153 237.18776 85.08744 89.037 257.36478 110.07483 139.82622
77.35858 99.419365 111.33093 134.10713 94.789024 47.964096 168.82803 177.4184

conv4.weight f4 [16, 16, 5, 5]
00000000: d3ed b3be a368 e4be 3c4c 52bf c2bf a9bf
00000010: 914d d7bf 7326 1cbd dfef 82bd a04b c7be
00000020: 1dd6 63bf ee6f a5bf 8424 b63e 550c b03e
00000030: b03c 0e3d a9c9 ccbe ffb0 35bf d855 583f
00000040: 439b 613f d0cc 443f f000 e83e 8fe6 5d3e
00000050: 132a 563f 20de 6c3f f78a 4f3f f68e 003f
00000060: 4422 c73e 2ea2 873e 332a d43e 8233 0e3f
00000070: 336e 033f cd46 3c3f 6b14 fd3d 3ad7 773e
00000080: b996 9c3e af39 343e a2ee 723e 85f1 d33d
00000090: 2486 863e c28c 773e 4c37 033e 0b1e 873d
000000a0: a4f6 853e 86be 003f 2c36 e33e c09d 6e3e
000000b0: 3ef4 fb3c 0453 a83e fe76 173f 454c 053f
000000c0: 2582 a13e d76f ae3d 7742 0fbf cf9c 55bf
000000d0: 8d23 9cbf d6fe c0bf 2d64 c9bf 3f57 83bd
000000e0: 733d f1be 61d7 6bbf 781d 98bf 7ba1 a3bf
000000f0: bf63 8c3e 4e7e 0ebe 210a 1dbf 18d2 77bf
00000100: 934c 7cbf e95f 1a3f e202 a33e 5818 a8bd
00000110: b74b c5be 9261 cfbe 3d17 823f 8969 4d3f
00000120: 39ad 093f e026 c03e cbbd ef3e 114e 3cbf
00000130: 8a05 0abf b4cb d7be 1d1a 6abe 4971 243c
00000140: 79e4 1ebf c586 03bf 55a9 eabe db9d d7be
00000150: 2b7b a1be 0a0a 49bf 6d76 3cbf bf40 3fbf
00000160: 5de3 57bf 33ff 50bf 8071 5bbf 0b2c 70bf
00000170: dbb8 70bf c567 7bbf 1fee 92bf 6176 30bf
00000180: 7372 27bf 3dc4 2abf 5687 3abf 0de8 80bf
00000190: c2ca d73e 48e8 773e 509e d53c 350d 0cbe
000001a0: 2213 22be facb fe3e d282 a33e 07ec 61bb
000001b0: d16d e3bd e968 64be 78a2 913e 6e0a 203e
000001c0: c125 bfbd 5d45 74be 5d6c 31be 3974 ef3e
000001d0: 281a ba3e c9f8 383e c54f 0c3e 77b6 853e
000001e0: d981 6b3f 77f6 2a3f fd70 fc3e a771 fb3e
000001f0: 3a07 253f 0da8 36bf 9e3b 19bf 710e 54bf
00000200: cdc8 97bf 4a24 e5bf d99e 92bd 29f9 5c39
00000210: 7930 48be bb9c 0ebf 153b 88bf be1d 973e
00000220: e57d 9a3e f70a 823d ff11 7ebe 706c 3dbf
00000230: f728 c23e 9e5c c53e 1b38 8d3e 67aa c6bd
00000240: b985 0dbf 74e1 cf3e 6453 133f ae34 cf3e
00000250: 0cc9 073e df40 48be 80bc 743f 1a81 623f
00000260: eb51 813e 6bbe 95be f0b5 5fbf 32d3 853f
00000270: 345d 783f b25b da3e d975 46be d1c5 42bf
00000280: 43d9 303f 106c 483f cdf9 783e 0893 42be
00000290: e7b8 43bf aa4e 883e b04b d53e cc98 353d
000002a0: f1bf 93be e749 43bf 8f5a 8bbe 1459 b7bc
000002b0: 3825 8fbe c755 00bf c329 44bf d019 0d3e
000002c0: 341d 7a3d a486 f93b 8f54 e1bd 0fc7 c1be
000002d0: 5505 fc3e c949 043f ae09 f43e bf32 b23e
000002e0: eea6 bb3d f12e 423f 5d10 503f cbb2 443f
000002f0: 6fdc 1d3f b820 c83e 07bf 613f c10f 743f
00000300: 94e5 843f 9c79 7d3f b3de 3b3f a76b 633f
00000310: cd1c 823f ecbf 8c3f 5ba7 923f 3500 823f
00000320: a64d 2d3e 4e55 f03d 1bc5 b3bd 4d29 e6be
00000330: c561 51bf 3bc9 3f3f f1ed 2e3f 1176 a23e
00000340: efc1 1dbe 6bf9 0ebf c38f 083f 7f53 983e
00000350: d604 f1bd 73a6 30bf 9619 90bf 3d05 003f
00000360: b649 413e cf43 9bbe c8a7 62bf 829b afbf
00000370: d699 5f3f 0ad6 ed3e 7430 d3bd 0736 22bf
00000380: 2a48 94bf f59e 57bf a1c5 18bf 620b dbbe
00000390: bf39 3bbe 540a 343d 1d32 ecbe 0339 a9be
000003a0: 7efd cdbc e9ef 613e 8814 e23e 45f8 a4bd
000003b0: 6c63 b83d b718 603e 73b7 053f e8f9 463f
000003c0: 851e 893e a05a 3a3e 0350 963e 9c3b 023f
000003d0: d3a3 253f 8de1 1f3f 2ee5 0f3f 53c2 013f
000003e0: e5fc 113f 08f4 1d3f 1587 48bf 0127 45bf
000003f0: fae3 34bf 88e0 5fbf b6e3 83bf e79d a73c
-0.35142383 -0.4461108 -0.82147574 -1.3261645 -1.6820546 -0.038122606 -0.06393408 -0.38924885
-0.88998586 -1.2924783 0.35574734 0.3438441 0.034725845 -0.39997604 -0.709732 0.8450599
0.88127536 0.7687502 0.45313215 0.21669982 0.8365795 0.92526436 0.8107142 0.5021814
0.3889333 0.2649092 0.41438445 0.55547345 0.51340026 0.73545533 0.1235741 0.24203196
0.30583742 0.1760013 0.23723844 0.103488006 0.26274216 0.24174789 0.12814063 0.06597527
0.26164734 0.50290716 0.44377267 0.23302364 0.030756112 0.32875836 0.5916594 0.52069503
0.31544605 0.085174255 -0.5596079 -0.83442396 -1.2198349 -1.507777 -1.5733696 -0.06413125
-0.47117195 -0.9212552 -1.1883993 -1.2783655 0.2741985 -0.13915369 -0.6134358 -0.9680495
-0.98554343 0.603026 0.31838137 -0.08207768 -0.38534328 -0.40504128 1.0163342 0.8023916
0.5377994 0.3752966 0.46824488 -0.7355662 -0.539147 -0.421476 -0.22861524 0.010036775
-0.6206737 -0.51377517 -0.45832315 -0.42112622 -0.31539282 -0.78530943 -0.73618203 -0.7470817
-0.84331304 -0.81639403 -0.8572006 -0.93817204 -0.9403207 -0.98205215 -1.1478919 -0.6893063
-0.6540901 -0.66705686 -0.72862756 -1.0070816 0.4214688 0.24209702 0.026076466 -0.13676913
-0.15827611 0.49764997 0.31935745 -0.0034472959 -0.1110493 -0.22305645 0.28444266 0.15628979
-0.09333373 -0.23854585 -0.17326494 0.46768358 0.3634808 0.18063654 0.13702305 0.26115772
0.91995007 0.66782326 0.49304953 0.49110147 0.6446415 -0.71350175 -0.59856594 -0.82834536
-1.1858155 -1.79017 -0.07159204 0.00021073654 -0.19549741 -0.557079 -1.064303 0.2951488
0.30174175 0.06349748 -0.24811552 -0.7399359 0.3792188 0.38547224 0.27581868 -0.097004704
-0.5528217 0.40601695 0.5754912 0.4046988 0.13260287 -0.19555996 0.9560013 0.88478243
0.2525781 -0.2924684 -0.8738699 1.0455077 0.97017217 0.42648083 -0.19380893 -0.76083094
0.69081515 0.7828989 0.24314041 -0.190014 -0.76454014 0.26622516 0.41659307 0.04433517
-0.28857377 -0.7628464 -0.27217528 -0.022381343 -0.27958083 -0.50130886 -0.76626223 0.13779378
0.061063007 0.0076149274 -0.110024564 -0.37847182 0.49222818 0.5167509 0.47663635 0.3480434
0.09162699 0.75852877 0.8127497 0.76835316 0.6166448 0.39087462 0.8818211 0.9533654
1.0382562 0.99013686 0.7338669 0.8883614 1.0165039 1.099607 1.1457323 1.0156313
0.16924152 0.117350206 -0.08777829 -0.44953385 -0.8178981 0.7491643 0.6833182 0.31730703
-0.15406011 -0.5584933 0.5334436 0.29751202 -0.117685005 -0.6900398 -1.1257808 0.50007993
0.18875775 -0.3032517 -0.88537264 -1.3719332 0.8734411 0.4645236 -0.10311976 -0.6336369
-1.1584523 -0.84226924 -0.5967656 -0.42782122 -0.18283747 0.043955162 -0.46131983 -0.3305131
-0.025145289 0.22064175 0.4415629 -0.08055166 0.09003338 0.21884428 0.52233046 0.77725077
0.26781097 0.18198633 0.2935792 0.50872207 0.647031 0.6245354 0.56209075 0.5068714
0.5702651 0.6170049 -0.7833112 -0.7701264 -0.70660365 -0.8745198 -1.0303867 0.020461036

conv4.bias f4 [16]
00000000: d1fe 113f 7262 7abd 3c62 eebe 2372 9c3d
00000010: 2f7a 4ebe a778 99bf 664a 95bf d3f1 133d
00000020: 9c74 123e 69ff 55bf 5e15 18be 4f79 0a3f
00000030: 7081 063f 6c98 433f 2935 523e 251f 98bf
0.57029444 -0.06112904 -0.46559322 0.07638957 -0.20163797 -1.1989945 -1.166333 0.036119293
0.14302295 -0.8359285 -0.14851901 0.5409135 0.52541256 0.7640445 0.20528091 -1.1884505

bn4.weight f4 [16]
00000000: 967a 593f dedd bb3f ecc7 483f bfae 473f
00000010: dcd2 bc3f f2bc 823f 3eb1 813f 2410 963f
00000020: 929b 963f 9ca4 ac3f c73a da3f 4290 9b3f
00000030: 1401 ac3f 35b7 a33f 8568 613f 4b70 bc3f
0.84952676 1.4677083 0.78430057 0.78001016 1.4751849 1.0213912 1.0132215 1.1723676
1.1766226 1.3487735 1.7049187 1.2153399 1.3437829 1.2790285 0.8805011 1.4721769

bn4.bias f4 [16]
00000000: d612 8cbf e32d bdbf efa8 d6be 700e 02bf
00000010: 882a b2bd 2b81 ecbe f889 1abf 69bd 53bf
00000020: d76b 8abf 50de 35bf 1b4a eabe 509c 7cbf
00000030: 79fe 8bbf 9324 84bf d3be 99be fb0d 88bf
-1.0943248 -1.4779629 -0.4192576 -0.5080328 -0.086995184 -0.46192297 -0.60366774 -0.8271089
-1.081416 -0.71042347 -0.45759663 -0.98676014 -1.0937034 -1.0323662 -0.300284 -1.0629267

bn4.running_mean f4 [16]
00000000: 6aff 9840 6ba7 77c0 fdc6 2ec1 4b2d 26c1
00000010: a52c 6640 8c43 70c1 47e4 5fc0 648f cfc0
00000020: 0102 ebc0 43d6 f1bf 5231 023f 8409 d1bf
00000030: a917 fac0 0c47 c9bf 5e7f 0340 7ea6 6d3f
4.7811785 -3.8695934 -10.923581 -10.386058 3.596475 -15.016491 -3.498308 -6.4862537
-7.3439946 -1.8893512 0.50856507 -1.6331029 -7.815388 -1.5724807 2.0546489 0.9283217

bn4.running_var f4 [16]
00000000: 8ca4 d642 194f 0343 f33d 4a43 038c 9043
00000010: 7d37 8743 42cb c143 c693 3743 2656 0f43
00000020: 2dcb 0543 1e32 ce42 c76e 0543 2555 fe42
00000030: 938e 0543 72bb a942 7d65 3143 96b2 b742
107.32138 131.30898 202.24199 289.09384 270.4335 387.58795 183.57724 143.33652
133.79366 103.097885 133.43272 127.1663 133.55693 84.866104 177.39644 91.8488

fc1.weight f4 [16, 16]
00000000: d11e abbe 9ce8 b5bf 9044 45bf c504 c73e
00000010: aab2 12bf 8dcb 9cbe 081d 703f defd 03be
00000020: bf83 9f3f 34a5 753f 6212 9abf 3e4e 303e
00000030: 3135 793f fb73 023f 6347 4c3f c7db 973f
00000040: 5794 75be 83ad a7bd 4a39 82be fc76 b5ba
00000050: 4c80 a4bc 77e5 02be 5d9a 5ebd 0a85 77be
00000060: 1e4d 2d3e 8332 93be 6511 a0bd 5762 b5bd
00000070: 2ad3 a1be f671 84be ca54 a1bd 48d8 093d
00000080: f71f efbf ab6b 2b3f 93ec 2e3e 8139 52be
00000090: 8738 063f 413d c73d 2db1 363e c5d6 9bbf
000000a0: cb96 b63f 9dea 513f 6a38 513e e28b adbf
000000b0: 7eca a7bf 68c5 9cbf df7c cf3c cfe5 36bf
000000c0: b256 d4bf d9ce 3b3f 021d 173e 7ca5 8fbe
000000d0: e326 0b3f d146 0d3e f25f 8a3e d1bf a2bf
000000e0: 839a b83f bba2 423f 8072 ac3e 9e1d c3bf
000000f0: 3974 9abf b781 9cbf 5bc1 2cbe d402 55bf
00000100: 9918 dbbf 9b70 363f 36f6 0b3e f126 97bd
00000110: ed1f 0b3f 729a 76be 078c db3e 7601 92bf
00000120: e107 bf3f 79b2 4a3f 2ca9 5d3e dee6 aebf
00000130: 5db6 a4bf 771c 9cbf 66ea 46bd 9f42 3cbf
00000140: 9ed1 053e b08e bbbf 3994 a3be 3aea f13e
00000150: 3d4e 2cbf be41 c4be e1cc 443f be41 3d3f
00000160: 6115 56be 4b78 2a3f 306a 8abf d708 4f3e
00000170: 7625 773f 2ed5 8c3f 9591 183f 7b1d a73f
00000180: 3839 9cbf 728d 533f 8816 d13d 35a7 f1be
00000190: 7bd3 1c3f be9b 703e 42d8 1ebd cd03 9fbf
000001a0: 696a 963f 14d2 0e3f 942d f33e 4dba a9bf
000001b0: 1e51 8bbf 77c7 a6bf 5fff e2bd 0bfc 81bf
000001c0: 0770 afbf 0e03 503f 82ef 243e 871e c5be
000001d0: a908 223f 547b 5a3e 62ee f23d 4775 adbf
000001e0: f58d 923f 2171 0a3f 09fb ed3e 5511 b1bf
000001f0: 3ed0 8bbf c053 a7bf eab8 06be 0857 86bf
00000200: c89f b2bd 4a7c c0bf c6fb 02bf 916f dd3e
00000210: b632 27bf 009c a4be 10e7 4a3f 687f 963e
00000220: 436c d33e 98fc 503f 64d0 8dbf f7ed 353e
00000230: 131c 713f 2c22 713f 6580 333f 1588 a03f
00000240: bbf3 a9bf 62cd 423f 4efc 3f3e 75b3 c1be
00000250: c190 123f 9353 863e b859 283e b29b 9bbf
00000260: 2c41 9e3f d676 163f ed1c e43e 8d95 b5bf
00000270: ca72 8ebf fde4 a0bf f6ac 10be 896e 77bf
00000280: d3d2 b6bc 170e babf 1af9 a3be 02f6 db3e
00000290: 655e 2dbf 1278 b8be 426f 2c3f 199e 553f
000002a0: ac39 a4be f384 283f 5ac8 7dbf 4ca4 dd3c
000002b0: 545d 723f b7ea 923f cdf5 103f ac99 a33f
000002c0: d572 ccbf 118c 2f3f 9cda 903e 75c6 c2be
000002d0: efd3 ef3e cabe 533e 34a5 a53d 70a0 a5bf
000002e0: 4a8e b13f ad6f 473f 48fb a93e 44fe c4bf
000002f0: a8a1 9ebf 3329 91bf c6b1 67bd 1274 4bbf
00000300: 2cab 3ebe 6a1f e23d 0462 1abe d3c7 d23c
00000310: 3857 563e 0e18 f4bd c4cb 4cbc 2e94 f9ba
00000320: ede4 5dbe 561a 21be d864 69bd 29ce 6abd
00000330: a4d1 4cbe 0bed a2bd 955b 4cbe 24e1 2fbc
00000340: 9ba6 a1bf 54a0 383f 1a41 003e 63f9 dfbe
00000350: de72 0f3f 2bbb 693e 4811 783e 783c a7bf
00000360: 5f8f ae3f cc96 1a3f facb e13e 3aba b3bf
00000370: dcf7 97bf 3156 98bf 7cad 2ebe 47c6 72bf
00000380: 5068 5ebd 2fb6 bbbf 9280 cebe 799c ca3e
00000390: 75aa 1cbf 9cbb b2be b926 483f c78f 453f
000003a0: a2a3 56be 8547 1f3f 4ac8 82bf c004 0f3e
000003b0: 0dfa 813f 57c1 8a3f 7b80 173f f3cc 9f3f
000003c0: 504f 11bf 2fae afbf edcb 85bf 5bd2 be3e
000003d0: 6350 01bf 4e1a a4be abe7 873f 6a84 bbbe
000003e0: aa61 e53f 5a35 843f 50b8 a7bf 2a4f 8a3d
000003f0: da73 7e3f e149 f5bd 332d 833f 2b78 8e3f
-0.3342195 -1.4211612 -0.77057743 0.38870826 -0.5730387 -0.30624047 0.937943 -0.12889811
1.2462081 0.95955205 -1.203686 0.17217347 0.9734679 0.5095822 0.7979643 1.1863946
-0.23982368 -0.081873916 -0.25434333 -0.0013844664 -0.020080708 -0.12782846 -0.05434643 -0.24171844
0.16923949 -0.28749475 -0.07815818 -0.088566475 -0.31606418 -0.25868195 -0.078775 0.033653527
-1.868163 0.66961163 0.17082433 -0.20529748 0.52430004 0.0972848 0.17841025 -1.2174917
1.4264768 0.81998616 0.20431677 -1.3558314 -1.3108671 -1.2247744 0.025328098 -0.7144441
-1.6588957 0.733625 0.1475716 -0.28055942 0.5435621 0.13796546 0.27026325 -1.2714788
1.4422153 0.76029557 0.33681107 -1.5243413 -1.2066718 -1.2227086 -0.16870634 -0.8320744
-1.7116882 0.7126557 0.13668141 -0.07380474 0.5434559 -0.24082354 0.4288027 -1.1406696
1.492428 0.7917858 0.21646565 -1.3664205 -1.2868153 -1.2196187 -0.048563384 -0.73539156
0.13068244 -1.465292 -0.31949022 0.47249013 -0.6730688 -0.38331407 0.7687512 0.7392844
-0.20906593 0.665898 -1.0813656 0.20218216 0.96541536 1.1002557 0.5959714 1.3055872
-1.2204962 0.82637703 0.102093756 -0.4719788 0.61260194 0.23496911 -0.03878046 -1.2423035
1.1751224 0.55789304 0.4749571 -1.325998 -1.088413 -1.3029622 -0.110838644 -1.0155042
-1.3706063 0.8125466 0.1610699 -0.38499853 0.63294464 0.21336108 0.11861874 -1.3551415
1.1449572 0.5407887 0.46480587 -1.3833414 -1.0922925 -1.3072433 -0.13156477 -1.049531
-0.08721882 -1.503793 -0.51165426 0.4324918 -0.65311754 -0.3215027 0.79258823 0.29394078
0.41293535 0.8163543 -1.1079221 0.17766558 0.9418346 0.9419277 0.7011779 1.2541529
-1.3277506 0.7609464 0.1874859 -0.37832227 0.57252127 0.26235637 0.16440475 -1.215689
1.2363639 0.5877508 0.4455332 -1.4186264 -1.1128781 -1.2569882 -0.1412848 -0.9665304
-0.022317326 -1.453555 -0.32025987 0.42961127 -0.6772216 -0.36029106 0.67357266 0.8344436
-0.3207525 0.65827864 -0.9913384 0.027055882 0.9467366 1.1477879 0.5662506 1.2781272
-1.5972544 0.685731 0.28291786 -0.38042036 0.4684138 0.20678249 0.080881506 -1.2939587
1.3871548 0.7790478 0.33199525 -1.5390096 -1.2393084 -1.1340698 -0.056566022 -0.79473984
-0.18619984 0.11041148 -0.15076452 0.02573005 0.20931709 -0.119186506 -0.012499753 -0.0019041353
-0.2166936 -0.15732703 -0.056980938 -0.057325516 -0.20001847 -0.079553686 -0.19956811 -0.01073483
-1.2628969 0.7211964 0.12524834 -0.43744954 0.5603465 0.22825305 0.24225342 -1.3065329
1.3637503 0.6038635 0.44100934 -1.4041207 -1.1872516 -1.1901304 -0.17058367 -0.948338
-0.0542987 -1.4664973 -0.40332466 0.39572504 -0.61197597 -0.3490876 0.78184086 0.7717251
-0.20960858 0.62218505 -1.0217373 0.13966656 1.0154434 1.0840253 0.5918042 1.248442
-0.56761646 -1.3725032 -1.0452858 0.37269863 -0.50513285 -0.3205132 1.0617574 -0.3662446
1.792043 1.0328782 -1.3103123 0.067533806 0.99395525 -0.11976982 1.0248169 1.1130422

fc1.bias f4 [16]
00000000: af26 0e3d b896 ff3a f022 d63c acf8 c83c
00000010: 5fdc 9c3c a2d4 f43c a96f 0b3d 8e1e f23c
00000020: bce5 ef3c eeef 653c a060 fe3c 3324 873c
00000030: 153a 71be 72cb ff3c 9562 ce3c 6573 463d
0.03470486 0.0019499874 0.026139706 0.024532638 0.01914805 0.029886547 0.034042034 0.029555585
0.02928435 0.0140342545 0.031051934 0.016496753 -0.23557313 0.03122494 0.025193492 0.048449893

fc2.weight f4 [2, 16]
00000000: 0c18 f23f f06e e73c 4ec2 65bf 13c0 3cbf
00000010: 653c 3ebf 04a5 bb3f 6a10 3fbf ead8 48bf
00000020: f721 d43f 72e4 39bf 294a ac3f b19e 43bf
00000030: 8856 043e 2d9c 48bf 4822 b33f f712 0e40
00000040: 8e0b eebf 5c0c 213b efac 2c3f a229 473f
00000050: 1f3e 613f f0f6 b4bf e46f 323f 1d41 1e3f
00000060: a71c cebf 3c5a 393f 9c6b c9bf fbba 403f
00000070: fbb4 9a3d 6644 323f b8ba c5bf 9288 e8bf
1.8913589 0.028251141 -0.8974961 -0.7373058 -0.74310905 1.4659734 -0.7463442 -0.78455985
1.6572865 -0.72614205 1.3460132 -0.7641402 0.12923634 -0.78363305 1.3994837 2.2199075
-1.8597276 0.0024574017 0.67451376 0.777979 0.87985414 -1.4137859 0.6970198 0.61818105
-1.6102494 0.7240331 -1.5735965 0.7528531 0.075540505 0.6963562 -1.5447607 -1.8166678

fc2.bias f4 [2]
00000000: e567 de3d 331a 29bd
0.1085966 -0.04128475
